ST Edge AI Core v1.0.0-19894
Created date          : 2024-12-18 12:19:09
Parameters            : generate --target stm32h7 -m H:\stm32ai-modelzoo-2.1.0\object_detection\src\experiments_outputs\2024_12_17_22_26_10\quantized_models\quantized_model.tflite --output H:\stm32ai-modelzoo-2.1.0\object_detection\src\experiments_outputs\2024_12_18_12_15_36 --workspace H:\stm32ai-modelzoo-2.1.0\object_detection\src\experiments_outputs\2024_12_18_12_15_36 --dll --allocate-inputs --allocate-outputs --split-weights --quiet -O balanced --memory-pool ../../stm32ai_application_code/object_detection/mempools_STM32H747I-DISCO.json

Exec/report summary (generate)
--------------------------------------------------------------------------------------------------------------------------------------------------------
model file         :   H:\stm32ai-modelzoo-2.1.0\object_detection\src\experiments_outputs\2024_12_17_22_26_10\quantized_models\quantized_model.tflite   
type               :   tflite                                                                                                                           
c_name             :   network                                                                                                                          
compression        :   lossless                                                                                                                         
options            :   allocate-inputs, allocate-outputs, multi-heaps, split-weights                                                                    
optimization       :   balanced                                                                                                                         
target/series      :   stm32h7                                                                                                                          
memory pool        :   H:\stm32ai-modelzoo-2.1.0\stm32ai_application_code\object_detection\mempools_STM32H747I-DISCO.json                               
workspace dir      :   H:\stm32ai-modelzoo-2.1.0\object_detection\src\experiments_outputs\2024_12_18_12_15_36                                           
output dir         :   H:\stm32ai-modelzoo-2.1.0\object_detection\src\experiments_outputs\2024_12_18_12_15_36                                           
model_fmt          :   sa/sa per tensor                                                                                                                 
model_name         :   quantized_model                                                                                                                  
model_hash         :   0x8358084e73eb43945b32c94166f89d53                                                                                               
params #           :   1,043,669 items (1063.37 KiB)                                                                                                    
--------------------------------------------------------------------------------------------------------------------------------------------------------
input 1/1          :   'serving_default_input_10', uint8(1x192x192x3), 108.00 KBytes, QLinear(127.500000000,0,uint8), activations                       
output 1/3         :   'conversion_202', f32(1x3845x5), 75.10 KBytes, activations                                                                       
output 2/3         :   'conversion_210', f32(1x3845x4), 60.08 KBytes, activations                                                                       
output 3/3         :   'conversion_218', f32(1x3845x4), 60.08 KBytes, activations                                                                       
outputs (total)    :   0 Bytes                                                                                                                          
macc               :   124,403,144                                                                                                                      
weights (ro)       :   1,078,852 B (1053.57 KiB) (247 segments) / -3,095,824(-74.2%) vs float model                                                     
activations (rw)   :   805,280 B (786.41 KiB) (3 segments) *                                                                                            
ram (total)        :   805,280 B (786.41 KiB) = 805,280 + 0 + 0                                                                                         
--------------------------------------------------------------------------------------------------------------------------------------------------------
(*) 'input'/'output' buffers can be used from the activations buffer
 
 Memory-pools summary (activations/ domain)
 -------------------------- ----- -------------------------- --------- 
 name                       id    used                       buffer#   
 -------------------------- ----- -------------------------- --------- 
 DTCMRAM                    0     13.32 KiB (11.1%)          124       
 AXIRAM                     1     332.04 KiB (80.0%)         194       
 SDRAM                      2     441.05 KiB (2.2%)          2         
 concat_217_const_array     3     15.02 KiB (1538000.0%)     1         
 conv2d_1_weights_array     4     432 B (43200.0%)           1         
 conv2d_1_bias_array        5     64 B (6400.0%)             1         
 conv2d_2_weights_array     6     144 B (14400.0%)           1         
 conv2d_2_bias_array        7     64 B (6400.0%)             1         
 conv2d_3_weights_array     8     128 B (12800.0%)           1         
 conv2d_3_bias_array        9     32 B (3200.0%)             1         
 conv2d_4_weights_array     10    384 B (38400.0%)           1         
 conv2d_4_bias_array        11    192 B (19200.0%)           1         
 conv2d_6_weights_array     12    432 B (43200.0%)           1         
 conv2d_6_bias_array        13    192 B (19200.0%)           1         
 conv2d_7_weights_array     14    384 B (38400.0%)           1         
 conv2d_7_bias_array        15    32 B (3200.0%)             1         
 conv2d_8_weights_array     16    384 B (38400.0%)           1         
 conv2d_8_bias_array        17    192 B (19200.0%)           1         
 conv2d_9_weights_array     18    432 B (43200.0%)           1         
 conv2d_9_bias_array        19    192 B (19200.0%)           1         
 conv2d_10_weights_array    20    384 B (38400.0%)           1         
 conv2d_10_bias_array       21    32 B (3200.0%)             1         
 conv2d_12_weights_array    22    384 B (38400.0%)           1         
 conv2d_12_bias_array       23    192 B (19200.0%)           1         
 conv2d_14_weights_array    24    432 B (43200.0%)           1         
 conv2d_14_bias_array       25    192 B (19200.0%)           1         
 conv2d_15_weights_array    26    768 B (76800.0%)           1         
 conv2d_15_bias_array       27    64 B (6400.0%)             1         
 conv2d_16_weights_array    28    1.50 KiB (153600.0%)       1         
 conv2d_16_bias_array       29    384 B (38400.0%)           1         
 conv2d_17_weights_array    30    864 B (86400.0%)           1         
 conv2d_17_bias_array       31    384 B (38400.0%)           1         
 conv2d_18_weights_array    32    1.50 KiB (153600.0%)       1         
 conv2d_18_bias_array       33    64 B (6400.0%)             1         
 conv2d_20_weights_array    34    1.50 KiB (153600.0%)       1         
 conv2d_20_bias_array       35    384 B (38400.0%)           1         
 conv2d_21_weights_array    36    864 B (86400.0%)           1         
 conv2d_21_bias_array       37    384 B (38400.0%)           1         
 conv2d_22_weights_array    38    1.50 KiB (153600.0%)       1         
 conv2d_22_bias_array       39    64 B (6400.0%)             1         
 conv2d_182_weights_array   40    2.00 KiB (204800.0%)       1         
 conv2d_182_bias_array      41    512 B (51200.0%)           1         
 conv2d_24_weights_array    42    1.50 KiB (153600.0%)       1         
 conv2d_24_bias_array       43    384 B (38400.0%)           1         
 conv2d_26_weights_array    44    864 B (86400.0%)           1         
 conv2d_26_bias_array       45    384 B (38400.0%)           1         
 conv2d_27_weights_array    46    2.25 KiB (230400.0%)       1         
 conv2d_27_bias_array       47    96 B (9600.0%)             1         
 conv2d_28_weights_array    48    3.38 KiB (345600.0%)       1         
 conv2d_28_bias_array       49    576 B (57600.0%)           1         
 conv2d_29_weights_array    50    1.27 KiB (129600.0%)       1         
 conv2d_29_bias_array       51    576 B (57600.0%)           1         
 conv2d_30_weights_array    52    3.38 KiB (345600.0%)       1         
 conv2d_30_bias_array       53    96 B (9600.0%)             1         
 conv2d_32_weights_array    54    3.38 KiB (345600.0%)       1         
 conv2d_32_bias_array       55    576 B (57600.0%)           1         
 conv2d_33_weights_array    56    1.27 KiB (129600.0%)       1         
 conv2d_33_bias_array       57    576 B (57600.0%)           1         
 conv2d_34_weights_array    58    3.38 KiB (345600.0%)       1         
 conv2d_34_bias_array       59    96 B (9600.0%)             1         
 conv2d_36_weights_array    60    3.38 KiB (345600.0%)       1         
 conv2d_36_bias_array       61    576 B (57600.0%)           1         
 conv2d_37_weights_array    62    1.27 KiB (129600.0%)       1         
 conv2d_37_bias_array       63    576 B (57600.0%)           1         
 conv2d_38_weights_array    64    3.38 KiB (345600.0%)       1         
 conv2d_38_bias_array       65    96 B (9600.0%)             1         
 conv2d_40_weights_array    66    3.38 KiB (345600.0%)       1         
 conv2d_40_bias_array       67    576 B (57600.0%)           1         
 conv2d_41_weights_array    68    1.27 KiB (129600.0%)       1         
 conv2d_41_bias_array       69    576 B (57600.0%)           1         
 conv2d_42_weights_array    70    4.50 KiB (460800.0%)       1         
 conv2d_42_bias_array       71    128 B (12800.0%)           1         
 conv2d_43_weights_array    72    6.00 KiB (614400.0%)       1         
 conv2d_43_bias_array       73    768 B (76800.0%)           1         
 conv2d_44_weights_array    74    1.69 KiB (172800.0%)       1         
 conv2d_44_bias_array       75    768 B (76800.0%)           1         
 conv2d_45_weights_array    76    6.00 KiB (614400.0%)       1         
 conv2d_45_bias_array       77    128 B (12800.0%)           1         
 conv2d_47_weights_array    78    6.00 KiB (614400.0%)       1         
 conv2d_47_bias_array       79    768 B (76800.0%)           1         
 conv2d_48_weights_array    80    1.69 KiB (172800.0%)       1         
 conv2d_48_bias_array       81    768 B (76800.0%)           1         
 conv2d_49_weights_array    82    6.00 KiB (614400.0%)       1         
 conv2d_49_bias_array       83    128 B (12800.0%)           1         
 conv2d_151_weights_array   84    4.00 KiB (409600.0%)       1         
 conv2d_151_bias_array      85    512 B (51200.0%)           1         
 conv2d_51_weights_array    86    6.00 KiB (614400.0%)       1         
 conv2d_51_bias_array       87    768 B (76800.0%)           1         
 conv2d_53_weights_array    88    1.69 KiB (172800.0%)       1         
 conv2d_53_bias_array       89    768 B (76800.0%)           1         
 conv2d_54_weights_array    90    10.50 KiB (1075200.0%)     1         
 conv2d_54_bias_array       91    224 B (22400.0%)           1         
 conv2d_55_weights_array    92    18.38 KiB (1881600.0%)     1         
 conv2d_55_bias_array       93    1.31 KiB (134400.0%)       1         
 conv2d_56_weights_array    94    2.95 KiB (302400.0%)       1         
 conv2d_56_bias_array       95    1.31 KiB (134400.0%)       1         
 conv2d_57_weights_array    96    18.38 KiB (1881600.0%)     1         
 conv2d_57_bias_array       97    224 B (22400.0%)           1         
 conv2d_59_weights_array    98    18.38 KiB (1881600.0%)     1         
 conv2d_59_bias_array       99    1.31 KiB (134400.0%)       1         
 conv2d_60_weights_array    100   2.95 KiB (302400.0%)       1         
 conv2d_60_bias_array       101   1.31 KiB (134400.0%)       1         
 conv2d_61_weights_array    102   18.38 KiB (1881600.0%)     1         
 conv2d_61_bias_array       103   224 B (22400.0%)           1         
 conv2d_63_weights_array    104   18.38 KiB (1881600.0%)     1         
 conv2d_63_bias_array       105   1.31 KiB (134400.0%)       1         
 conv2d_64_weights_array    106   2.95 KiB (302400.0%)       1         
 conv2d_64_bias_array       107   1.31 KiB (134400.0%)       1         
 conv2d_65_weights_array    108   36.75 KiB (3763200.0%)     1         
 conv2d_65_bias_array       109   448 B (44800.0%)           1         
 conv2d_66_weights_array    110   140.00 KiB (14336000.0%)   1         
 conv2d_66_bias_array       111   5.00 KiB (512000.0%)       1         
 conv2d_67_weights_array    112   160.00 KiB (16384000.0%)   1         
 conv2d_67_bias_array       113   512 B (51200.0%)           1         
 conv2d_68_weights_array    114   1.12 KiB (115200.0%)       1         
 conv2d_68_bias_array       115   512 B (51200.0%)           1         
 conv2d_69_weights_array    116   16.00 KiB (1638400.0%)     1         
 conv2d_69_bias_array       117   512 B (51200.0%)           1         
 conv2d_70_weights_array    118   1.12 KiB (115200.0%)       1         
 conv2d_70_bias_array       119   512 B (51200.0%)           1         
 conv2d_71_weights_array    120   16.00 KiB (1638400.0%)     1         
 conv2d_71_bias_array       121   512 B (51200.0%)           1         
 conv2d_72_weights_array    122   1.12 KiB (115200.0%)       1         
 conv2d_72_bias_array       123   512 B (51200.0%)           1         
 conv2d_73_weights_array    124   16.00 KiB (1638400.0%)     1         
 conv2d_73_bias_array       125   512 B (51200.0%)           1         
 conv2d_74_weights_array    126   1.12 KiB (115200.0%)       1         
 conv2d_74_bias_array       127   512 B (51200.0%)           1         
 conv2d_75_weights_array    128   16.00 KiB (1638400.0%)     1         
 conv2d_75_bias_array       129   512 B (51200.0%)           1         
 conv2d_76_weights_array    130   1.12 KiB (115200.0%)       1         
 conv2d_76_bias_array       131   512 B (51200.0%)           1         
 conv2d_77_weights_array    132   3.12 KiB (320000.0%)       1         
 conv2d_77_bias_array       133   100 B (10000.0%)           1         
 conv2d_82_weights_array    134   1.12 KiB (115200.0%)       1         
 conv2d_82_bias_array       135   512 B (51200.0%)           1         
 conv2d_83_weights_array    136   2.50 KiB (256000.0%)       1         
 conv2d_83_bias_array       137   80 B (8000.0%)             1         
 conv2d_94_weights_array    138   1.12 KiB (115200.0%)       1         
 conv2d_94_bias_array       139   512 B (51200.0%)           1         
 conv2d_95_weights_array    140   16.00 KiB (1638400.0%)     1         
 conv2d_95_bias_array       141   512 B (51200.0%)           1         
 conv2d_96_weights_array    142   1.12 KiB (115200.0%)       1         
 conv2d_96_bias_array       143   512 B (51200.0%)           1         
 conv2d_97_weights_array    144   16.00 KiB (1638400.0%)     1         
 conv2d_97_bias_array       145   512 B (51200.0%)           1         
 conv2d_98_weights_array    146   1.12 KiB (115200.0%)       1         
 conv2d_98_bias_array       147   512 B (51200.0%)           1         
 conv2d_99_weights_array    148   16.00 KiB (1638400.0%)     1         
 conv2d_99_bias_array       149   512 B (51200.0%)           1         
 conv2d_100_weights_array   150   1.12 KiB (115200.0%)       1         
 conv2d_100_bias_array      151   512 B (51200.0%)           1         
 conv2d_101_weights_array   152   16.00 KiB (1638400.0%)     1         
 conv2d_101_bias_array      153   512 B (51200.0%)           1         
 conv2d_102_weights_array   154   1.12 KiB (115200.0%)       1         
 conv2d_102_bias_array      155   512 B (51200.0%)           1         
 conv2d_103_weights_array   156   16.00 KiB (1638400.0%)     1         
 conv2d_103_bias_array      157   512 B (51200.0%)           1         
 conv2d_104_weights_array   158   1.12 KiB (115200.0%)       1         
 conv2d_104_bias_array      159   512 B (51200.0%)           1         
 conv2d_105_weights_array   160   3.12 KiB (320000.0%)       1         
 conv2d_105_bias_array      161   100 B (10000.0%)           1         
 conv2d_110_weights_array   162   1.12 KiB (115200.0%)       1         
 conv2d_110_bias_array      163   512 B (51200.0%)           1         
 conv2d_111_weights_array   164   2.50 KiB (256000.0%)       1         
 conv2d_111_bias_array      165   80 B (8000.0%)             1         
 conv2d_122_weights_array   166   1.12 KiB (115200.0%)       1         
 conv2d_122_bias_array      167   512 B (51200.0%)           1         
 conv2d_123_weights_array   168   14.25 KiB (1459200.0%)     1         
 conv2d_123_bias_array      169   456 B (45600.0%)           1         
 conv2d_124_weights_array   170   1.00 KiB (102800.0%)       1         
 conv2d_124_bias_array      171   456 B (45600.0%)           1         
 conv2d_125_weights_array   172   11.58 KiB (1185600.0%)     1         
 conv2d_125_bias_array      173   416 B (41600.0%)           1         
 conv2d_126_weights_array   174   936 B (93600.0%)           1         
 conv2d_126_bias_array      175   416 B (41600.0%)           1         
 conv2d_127_weights_array   176   13.00 KiB (1331200.0%)     1         
 conv2d_127_bias_array      177   512 B (51200.0%)           1         
 conv2d_128_weights_array   178   1.12 KiB (115200.0%)       1         
 conv2d_128_bias_array      179   512 B (51200.0%)           1         
 conv2d_129_weights_array   180   16.00 KiB (1638400.0%)     1         
 conv2d_129_bias_array      181   512 B (51200.0%)           1         
 conv2d_130_weights_array   182   1.12 KiB (115200.0%)       1         
 conv2d_130_bias_array      183   512 B (51200.0%)           1         
 conv2d_131_weights_array   184   16.00 KiB (1638400.0%)     1         
 conv2d_131_bias_array      185   512 B (51200.0%)           1         
 conv2d_132_weights_array   186   1.12 KiB (115200.0%)       1         
 conv2d_132_bias_array      187   512 B (51200.0%)           1         
 conv2d_133_weights_array   188   3.12 KiB (320000.0%)       1         
 conv2d_133_bias_array      189   100 B (10000.0%)           1         
 conv2d_138_weights_array   190   1.12 KiB (115200.0%)       1         
 conv2d_138_bias_array      191   512 B (51200.0%)           1         
 conv2d_139_weights_array   192   2.50 KiB (256000.0%)       1         
 conv2d_139_bias_array      193   80 B (8000.0%)             1         
 conv2d_153_weights_array   194   1.12 KiB (115200.0%)       1         
 conv2d_153_bias_array      195   512 B (51200.0%)           1         
 conv2d_154_weights_array   196   16.00 KiB (1638400.0%)     1         
 conv2d_154_bias_array      197   512 B (51200.0%)           1         
 conv2d_155_weights_array   198   1.12 KiB (115200.0%)       1         
 conv2d_155_bias_array      199   512 B (51200.0%)           1         
 conv2d_156_weights_array   200   16.00 KiB (1638400.0%)     1         
 conv2d_156_bias_array      201   512 B (51200.0%)           1         
 conv2d_157_weights_array   202   1.12 KiB (115200.0%)       1         
 conv2d_157_bias_array      203   512 B (51200.0%)           1         
 conv2d_158_weights_array   204   16.00 KiB (1638400.0%)     1         
 conv2d_158_bias_array      205   512 B (51200.0%)           1         
 conv2d_159_weights_array   206   1.12 KiB (115200.0%)       1         
 conv2d_159_bias_array      207   512 B (51200.0%)           1         
 conv2d_160_weights_array   208   16.00 KiB (1638400.0%)     1         
 conv2d_160_bias_array      209   512 B (51200.0%)           1         
 conv2d_161_weights_array   210   1.12 KiB (115200.0%)       1         
 conv2d_161_bias_array      211   512 B (51200.0%)           1         
 conv2d_162_weights_array   212   16.00 KiB (1638400.0%)     1         
 conv2d_162_bias_array      213   512 B (51200.0%)           1         
 conv2d_163_weights_array   214   1.12 KiB (115200.0%)       1         
 conv2d_163_bias_array      215   512 B (51200.0%)           1         
 conv2d_164_weights_array   216   3.12 KiB (320000.0%)       1         
 conv2d_164_bias_array      217   100 B (10000.0%)           1         
 conv2d_169_weights_array   218   1.12 KiB (115200.0%)       1         
 conv2d_169_bias_array      219   512 B (51200.0%)           1         
 conv2d_170_weights_array   220   2.50 KiB (256000.0%)       1         
 conv2d_170_bias_array      221   80 B (8000.0%)             1         
 conv2d_184_weights_array   222   1.12 KiB (115200.0%)       1         
 conv2d_184_bias_array      223   512 B (51200.0%)           1         
 conv2d_185_weights_array   224   16.00 KiB (1638400.0%)     1         
 conv2d_185_bias_array      225   512 B (51200.0%)           1         
 conv2d_186_weights_array   226   1.12 KiB (115200.0%)       1         
 conv2d_186_bias_array      227   512 B (51200.0%)           1         
 conv2d_187_weights_array   228   16.00 KiB (1638400.0%)     1         
 conv2d_187_bias_array      229   512 B (51200.0%)           1         
 conv2d_188_weights_array   230   1.12 KiB (115200.0%)       1         
 conv2d_188_bias_array      231   512 B (51200.0%)           1         
 conv2d_189_weights_array   232   16.00 KiB (1638400.0%)     1         
 conv2d_189_bias_array      233   512 B (51200.0%)           1         
 conv2d_190_weights_array   234   1.12 KiB (115200.0%)       1         
 conv2d_190_bias_array      235   512 B (51200.0%)           1         
 conv2d_191_weights_array   236   16.00 KiB (1638400.0%)     1         
 conv2d_191_bias_array      237   512 B (51200.0%)           1         
 conv2d_192_weights_array   238   1.12 KiB (115200.0%)       1         
 conv2d_192_bias_array      239   512 B (51200.0%)           1         
 conv2d_193_weights_array   240   16.00 KiB (1638400.0%)     1         
 conv2d_193_bias_array      241   512 B (51200.0%)           1         
 conv2d_194_weights_array   242   1.12 KiB (115200.0%)       1         
 conv2d_194_bias_array      243   512 B (51200.0%)           1         
 conv2d_195_weights_array   244   3.12 KiB (320000.0%)       1         
 conv2d_195_bias_array      245   100 B (10000.0%)           1         
 conv2d_203_weights_array   246   1.12 KiB (115200.0%)       1         
 conv2d_203_bias_array      247   512 B (51200.0%)           1         
 conv2d_204_weights_array   248   2.50 KiB (256000.0%)       1         
 conv2d_204_bias_array      249   80 B (8000.0%)             1         
 -------------------------- ----- -------------------------- --------- 

Model name - quantized_model
------ ----------------------------------------------- ----------------------- ----------------- ----------- -------------------------- --- ------------------ ------------------- ------------------------ 
m_id   layer (type,original)                           oshape                  param/size               macc               connected to   | c_size             c_macc              c_type                   
------ ----------------------------------------------- ----------------------- ----------------- ----------- -------------------------- --- ------------------ ------------------- ------------------------ 
0      serving_default_input_10 (Input, )              [b:1,h:192,w:192,c:3]                                                              |                    +221,184(+100.0%)   Conversion_[1]           
       conversion_0 (Conversion, QUANTIZE)             [b:1,h:192,w:192,c:3]                         221,184   serving_default_input_10   |                    -221,184(-100.0%)   
------ ----------------------------------------------- ----------------------- ----------------- ----------- -------------------------- --- ------------------ ------------------- ------------------------ 
1      conv2d_1 (Conv2D, CONV_2D)                      [b:1,h:96,w:96,c:16]    448/496             3,981,328               conversion_0   |                                        Conv2D_[2]               
       nl_1_nl (Nonlinearity, CONV_2D)                 [b:1,h:96,w:96,c:16]                          147,456                   conv2d_1   |                    -147,456(-100.0%)   
------ ----------------------------------------------- ----------------------- ----------------- ----------- -------------------------- --- ------------------ ------------------- ------------------------ 
2      conv2d_2 (Conv2D, DEPTHWISE_CONV_2D)            [b:1,h:96,w:96,c:16]    160/208             1,327,120                    nl_1_nl   |                                        Pad_/Conv2D_[3, 4]       
       nl_2_nl (Nonlinearity, DEPTHWISE_CONV_2D)       [b:1,h:96,w:96,c:16]                          147,456                   conv2d_2   |                    -147,456(-100.0%)   
------ ----------------------------------------------- ----------------------- ----------------- ----------- -------------------------- --- ------------------ ------------------- ------------------------ 
3      conv2d_3 (Conv2D, CONV_2D)                      [b:1,h:96,w:96,c:8]     136/160             1,179,656                    nl_2_nl   |                                        Conv2D_[5]               
------ ----------------------------------------------- ----------------------- ----------------- ----------- -------------------------- --- ------------------ ------------------- ------------------------ 
4      conv2d_4 (Conv2D, CONV_2D)                      [b:1,h:96,w:96,c:48]    432/576             3,538,992                   conv2d_3   |                                        Conv2D_[6]               
       nl_4_nl (Nonlinearity, CONV_2D)                 [b:1,h:96,w:96,c:48]                          442,368                   conv2d_4   |                    -442,368(-100.0%)   
------ ----------------------------------------------- ----------------------- ----------------- ----------- -------------------------- --- ------------------ ------------------- ------------------------ 
5      pad_5 (Pad, PAD)                                [b:1,h:97,w:97,c:48]                                                     nl_4_nl   |                                        Pad_[7]                  
------ ----------------------------------------------- ----------------------- ----------------- ----------- -------------------------- --- ------------------ ------------------- ------------------------ 
6      conv2d_6 (Conv2D, DEPTHWISE_CONV_2D)            [b:1,h:48,w:48,c:48]    480/624               995,376                      pad_5   |                                        Conv2D_[8]               
       nl_6_nl (Nonlinearity, DEPTHWISE_CONV_2D)       [b:1,h:48,w:48,c:48]                          110,592                   conv2d_6   |                    -110,592(-100.0%)   
------ ----------------------------------------------- ----------------------- ----------------- ----------- -------------------------- --- ------------------ ------------------- ------------------------ 
7      conv2d_7 (Conv2D, CONV_2D)                      [b:1,h:48,w:48,c:8]     392/416               884,744                    nl_6_nl   |                                        Conv2D_[9]               
------ ----------------------------------------------- ----------------------- ----------------- ----------- -------------------------- --- ------------------ ------------------- ------------------------ 
8      conv2d_8 (Conv2D, CONV_2D)                      [b:1,h:48,w:48,c:48]    432/576               884,784                   conv2d_7   |                                        Conv2D_[10]              
       nl_8_nl (Nonlinearity, CONV_2D)                 [b:1,h:48,w:48,c:48]                          110,592                   conv2d_8   |                    -110,592(-100.0%)   
------ ----------------------------------------------- ----------------------- ----------------- ----------- -------------------------- --- ------------------ ------------------- ------------------------ 
9      conv2d_9 (Conv2D, DEPTHWISE_CONV_2D)            [b:1,h:48,w:48,c:48]    480/624               995,376                    nl_8_nl   |                                        Pad_/Conv2D_[11, 12]     
       nl_9_nl (Nonlinearity, DEPTHWISE_CONV_2D)       [b:1,h:48,w:48,c:48]                          110,592                   conv2d_9   |                    -110,592(-100.0%)   
------ ----------------------------------------------- ----------------------- ----------------- ----------- -------------------------- --- ------------------ ------------------- ------------------------ 
10     conv2d_10 (Conv2D, CONV_2D)                     [b:1,h:48,w:48,c:8]     392/416               884,744                    nl_9_nl   |                                        Conv2D_[13]              
------ ----------------------------------------------- ----------------------- ----------------- ----------- -------------------------- --- ------------------ ------------------- ------------------------ 
11     eltwise_11 (Eltwise, ADD)                       [b:1,h:48,w:48,c:8]                            18,432                   conv2d_7   |                                        Eltwise/add_[14]         
                                                                                                                              conv2d_10   | 
------ ----------------------------------------------- ----------------------- ----------------- ----------- -------------------------- --- ------------------ ------------------- ------------------------ 
12     conv2d_12 (Conv2D, CONV_2D)                     [b:1,h:48,w:48,c:48]    432/576               884,784                 eltwise_11   |                                        Conv2D_[15]              
       nl_12_nl (Nonlinearity, CONV_2D)                [b:1,h:48,w:48,c:48]                          110,592                  conv2d_12   |                    -110,592(-100.0%)   
------ ----------------------------------------------- ----------------------- ----------------- ----------- -------------------------- --- ------------------ ------------------- ------------------------ 
13     pad_13 (Pad, PAD)                               [b:1,h:49,w:49,c:48]                                                    nl_12_nl   |                                        Pad_[16]                 
------ ----------------------------------------------- ----------------------- ----------------- ----------- -------------------------- --- ------------------ ------------------- ------------------------ 
14     conv2d_14 (Conv2D, DEPTHWISE_CONV_2D)           [b:1,h:24,w:24,c:48]    480/624               248,880                     pad_13   |                                        Conv2D_[17]              
       nl_14_nl (Nonlinearity, DEPTHWISE_CONV_2D)      [b:1,h:24,w:24,c:48]                           27,648                  conv2d_14   |                    -27,648(-100.0%)    
------ ----------------------------------------------- ----------------------- ----------------- ----------- -------------------------- --- ------------------ ------------------- ------------------------ 
15     conv2d_15 (Conv2D, CONV_2D)                     [b:1,h:24,w:24,c:16]    784/832               442,384                   nl_14_nl   |                                        Conv2D_[18]              
------ ----------------------------------------------- ----------------------- ----------------- ----------- -------------------------- --- ------------------ ------------------- ------------------------ 
16     conv2d_16 (Conv2D, CONV_2D)                     [b:1,h:24,w:24,c:96]    1,632/1,920           884,832                  conv2d_15   |                                        Conv2D_[19]              
       nl_16_nl (Nonlinearity, CONV_2D)                [b:1,h:24,w:24,c:96]                           55,296                  conv2d_16   |                    -55,296(-100.0%)    
------ ----------------------------------------------- ----------------------- ----------------- ----------- -------------------------- --- ------------------ ------------------- ------------------------ 
17     conv2d_17 (Conv2D, DEPTHWISE_CONV_2D)           [b:1,h:24,w:24,c:96]    960/1,248             497,760                   nl_16_nl   |                                        Pad_/Conv2D_[20, 21]     
       nl_17_nl (Nonlinearity, DEPTHWISE_CONV_2D)      [b:1,h:24,w:24,c:96]                           55,296                  conv2d_17   |                    -55,296(-100.0%)    
------ ----------------------------------------------- ----------------------- ----------------- ----------- -------------------------- --- ------------------ ------------------- ------------------------ 
18     conv2d_18 (Conv2D, CONV_2D)                     [b:1,h:24,w:24,c:16]    1,552/1,600           884,752                   nl_17_nl   |                                        Conv2D_[22]              
------ ----------------------------------------------- ----------------------- ----------------- ----------- -------------------------- --- ------------------ ------------------- ------------------------ 
19     eltwise_19 (Eltwise, ADD)                       [b:1,h:24,w:24,c:16]                            9,216                  conv2d_15   |                                        Eltwise/add_[23]         
                                                                                                                              conv2d_18   | 
------ ----------------------------------------------- ----------------------- ----------------- ----------- -------------------------- --- ------------------ ------------------- ------------------------ 
20     conv2d_20 (Conv2D, CONV_2D)                     [b:1,h:24,w:24,c:96]    1,632/1,920           884,832                 eltwise_19   |                                        Conv2D_[24]              
       nl_20_nl (Nonlinearity, CONV_2D)                [b:1,h:24,w:24,c:96]                           55,296                  conv2d_20   |                    -55,296(-100.0%)    
------ ----------------------------------------------- ----------------------- ----------------- ----------- -------------------------- --- ------------------ ------------------- ------------------------ 
21     conv2d_21 (Conv2D, DEPTHWISE_CONV_2D)           [b:1,h:24,w:24,c:96]    960/1,248             497,760                   nl_20_nl   |                                        Pad_/Conv2D_[25, 26]     
       nl_21_nl (Nonlinearity, DEPTHWISE_CONV_2D)      [b:1,h:24,w:24,c:96]                           55,296                  conv2d_21   |                    -55,296(-100.0%)    
------ ----------------------------------------------- ----------------------- ----------------- ----------- -------------------------- --- ------------------ ------------------- ------------------------ 
22     conv2d_22 (Conv2D, CONV_2D)                     [b:1,h:24,w:24,c:16]    1,552/1,600           884,752                   nl_21_nl   |                                        Conv2D_[27]              
------ ----------------------------------------------- ----------------------- ----------------- ----------- -------------------------- --- ------------------ ------------------- ------------------------ 
23     eltwise_23 (Eltwise, ADD)                       [b:1,h:24,w:24,c:16]                            9,216                 eltwise_19   |                                        Eltwise/add_[28]         
                                                                                                                              conv2d_22   | 
------ ----------------------------------------------- ----------------------- ----------------- ----------- -------------------------- --- ------------------ ------------------- ------------------------ 
24     conv2d_24 (Conv2D, CONV_2D)                     [b:1,h:24,w:24,c:96]    1,632/1,920           884,832                 eltwise_23   |                                        Conv2D_[30]              
       nl_24_nl (Nonlinearity, CONV_2D)                [b:1,h:24,w:24,c:96]                           55,296                  conv2d_24   |                    -55,296(-100.0%)    
------ ----------------------------------------------- ----------------------- ----------------- ----------- -------------------------- --- ------------------ ------------------- ------------------------ 
25     pad_25 (Pad, PAD)                               [b:1,h:25,w:25,c:96]                                                    nl_24_nl   |                                        Pad_[31]                 
------ ----------------------------------------------- ----------------------- ----------------- ----------- -------------------------- --- ------------------ ------------------- ------------------------ 
26     conv2d_26 (Conv2D, DEPTHWISE_CONV_2D)           [b:1,h:12,w:12,c:96]    960/1,248             124,512                     pad_25   |                                        Conv2D_[32]              
       nl_26_nl (Nonlinearity, DEPTHWISE_CONV_2D)      [b:1,h:12,w:12,c:96]                           13,824                  conv2d_26   |                    -13,824(-100.0%)    
------ ----------------------------------------------- ----------------------- ----------------- ----------- -------------------------- --- ------------------ ------------------- ------------------------ 
27     conv2d_27 (Conv2D, CONV_2D)                     [b:1,h:12,w:12,c:24]    2,328/2,400           331,800                   nl_26_nl   |                                        Conv2D_[33]              
------ ----------------------------------------------- ----------------------- ----------------- ----------- -------------------------- --- ------------------ ------------------- ------------------------ 
28     conv2d_28 (Conv2D, CONV_2D)                     [b:1,h:12,w:12,c:144]   3,600/4,032           497,808                  conv2d_27   |                                        Conv2D_[34]              
       nl_28_nl (Nonlinearity, CONV_2D)                [b:1,h:12,w:12,c:144]                          20,736                  conv2d_28   |                    -20,736(-100.0%)    
------ ----------------------------------------------- ----------------------- ----------------- ----------- -------------------------- --- ------------------ ------------------- ------------------------ 
29     conv2d_29 (Conv2D, DEPTHWISE_CONV_2D)           [b:1,h:12,w:12,c:144]   1,440/1,872           186,768                   nl_28_nl   |                                        Pad_/Conv2D_[35, 36]     
       nl_29_nl (Nonlinearity, DEPTHWISE_CONV_2D)      [b:1,h:12,w:12,c:144]                          20,736                  conv2d_29   |                    -20,736(-100.0%)    
------ ----------------------------------------------- ----------------------- ----------------- ----------- -------------------------- --- ------------------ ------------------- ------------------------ 
30     conv2d_30 (Conv2D, CONV_2D)                     [b:1,h:12,w:12,c:24]    3,480/3,552           497,688                   nl_29_nl   |                                        Conv2D_[37]              
------ ----------------------------------------------- ----------------------- ----------------- ----------- -------------------------- --- ------------------ ------------------- ------------------------ 
31     eltwise_31 (Eltwise, ADD)                       [b:1,h:12,w:12,c:24]                            3,456                  conv2d_27   |                                        Eltwise/add_[38]         
                                                                                                                              conv2d_30   | 
------ ----------------------------------------------- ----------------------- ----------------- ----------- -------------------------- --- ------------------ ------------------- ------------------------ 
32     conv2d_32 (Conv2D, CONV_2D)                     [b:1,h:12,w:12,c:144]   3,600/4,032           497,808                 eltwise_31   |                                        Conv2D_[39]              
       nl_32_nl (Nonlinearity, CONV_2D)                [b:1,h:12,w:12,c:144]                          20,736                  conv2d_32   |                    -20,736(-100.0%)    
------ ----------------------------------------------- ----------------------- ----------------- ----------- -------------------------- --- ------------------ ------------------- ------------------------ 
33     conv2d_33 (Conv2D, DEPTHWISE_CONV_2D)           [b:1,h:12,w:12,c:144]   1,440/1,872           186,768                   nl_32_nl   |                                        Pad_/Conv2D_[40, 41]     
       nl_33_nl (Nonlinearity, DEPTHWISE_CONV_2D)      [b:1,h:12,w:12,c:144]                          20,736                  conv2d_33   |                    -20,736(-100.0%)    
------ ----------------------------------------------- ----------------------- ----------------- ----------- -------------------------- --- ------------------ ------------------- ------------------------ 
34     conv2d_34 (Conv2D, CONV_2D)                     [b:1,h:12,w:12,c:24]    3,480/3,552           497,688                   nl_33_nl   |                                        Conv2D_[42]              
------ ----------------------------------------------- ----------------------- ----------------- ----------- -------------------------- --- ------------------ ------------------- ------------------------ 
35     eltwise_35 (Eltwise, ADD)                       [b:1,h:12,w:12,c:24]                            3,456                 eltwise_31   |                                        Eltwise/add_[43]         
                                                                                                                              conv2d_34   | 
------ ----------------------------------------------- ----------------------- ----------------- ----------- -------------------------- --- ------------------ ------------------- ------------------------ 
36     conv2d_36 (Conv2D, CONV_2D)                     [b:1,h:12,w:12,c:144]   3,600/4,032           497,808                 eltwise_35   |                                        Conv2D_[44]              
       nl_36_nl (Nonlinearity, CONV_2D)                [b:1,h:12,w:12,c:144]                          20,736                  conv2d_36   |                    -20,736(-100.0%)    
------ ----------------------------------------------- ----------------------- ----------------- ----------- -------------------------- --- ------------------ ------------------- ------------------------ 
37     conv2d_37 (Conv2D, DEPTHWISE_CONV_2D)           [b:1,h:12,w:12,c:144]   1,440/1,872           186,768                   nl_36_nl   |                                        Pad_/Conv2D_[45, 46]     
       nl_37_nl (Nonlinearity, DEPTHWISE_CONV_2D)      [b:1,h:12,w:12,c:144]                          20,736                  conv2d_37   |                    -20,736(-100.0%)    
------ ----------------------------------------------- ----------------------- ----------------- ----------- -------------------------- --- ------------------ ------------------- ------------------------ 
38     conv2d_38 (Conv2D, CONV_2D)                     [b:1,h:12,w:12,c:24]    3,480/3,552           497,688                   nl_37_nl   |                                        Conv2D_[47]              
------ ----------------------------------------------- ----------------------- ----------------- ----------- -------------------------- --- ------------------ ------------------- ------------------------ 
39     eltwise_39 (Eltwise, ADD)                       [b:1,h:12,w:12,c:24]                            3,456                 eltwise_35   |                                        Eltwise/add_[48]         
                                                                                                                              conv2d_38   | 
------ ----------------------------------------------- ----------------------- ----------------- ----------- -------------------------- --- ------------------ ------------------- ------------------------ 
40     conv2d_40 (Conv2D, CONV_2D)                     [b:1,h:12,w:12,c:144]   3,600/4,032           497,808                 eltwise_39   |                                        Conv2D_[49]              
       nl_40_nl (Nonlinearity, CONV_2D)                [b:1,h:12,w:12,c:144]                          20,736                  conv2d_40   |                    -20,736(-100.0%)    
------ ----------------------------------------------- ----------------------- ----------------- ----------- -------------------------- --- ------------------ ------------------- ------------------------ 
41     conv2d_41 (Conv2D, DEPTHWISE_CONV_2D)           [b:1,h:12,w:12,c:144]   1,440/1,872           186,768                   nl_40_nl   |                                        Pad_/Conv2D_[50, 51]     
       nl_41_nl (Nonlinearity, DEPTHWISE_CONV_2D)      [b:1,h:12,w:12,c:144]                          20,736                  conv2d_41   |                    -20,736(-100.0%)    
------ ----------------------------------------------- ----------------------- ----------------- ----------- -------------------------- --- ------------------ ------------------- ------------------------ 
42     conv2d_42 (Conv2D, CONV_2D)                     [b:1,h:12,w:12,c:32]    4,640/4,736           663,584                   nl_41_nl   |                                        Conv2D_[52]              
------ ----------------------------------------------- ----------------------- ----------------- ----------- -------------------------- --- ------------------ ------------------- ------------------------ 
43     conv2d_43 (Conv2D, CONV_2D)                     [b:1,h:12,w:12,c:192]   6,336/6,912           884,928                  conv2d_42   |                                        Conv2D_[53]              
       nl_43_nl (Nonlinearity, CONV_2D)                [b:1,h:12,w:12,c:192]                          27,648                  conv2d_43   |                    -27,648(-100.0%)    
------ ----------------------------------------------- ----------------------- ----------------- ----------- -------------------------- --- ------------------ ------------------- ------------------------ 
44     conv2d_44 (Conv2D, DEPTHWISE_CONV_2D)           [b:1,h:12,w:12,c:192]   1,920/2,496           249,024                   nl_43_nl   |                                        Pad_/Conv2D_[54, 55]     
       nl_44_nl (Nonlinearity, DEPTHWISE_CONV_2D)      [b:1,h:12,w:12,c:192]                          27,648                  conv2d_44   |                    -27,648(-100.0%)    
------ ----------------------------------------------- ----------------------- ----------------- ----------- -------------------------- --- ------------------ ------------------- ------------------------ 
45     conv2d_45 (Conv2D, CONV_2D)                     [b:1,h:12,w:12,c:32]    6,176/6,272           884,768                   nl_44_nl   |                                        Conv2D_[56]              
------ ----------------------------------------------- ----------------------- ----------------- ----------- -------------------------- --- ------------------ ------------------- ------------------------ 
46     eltwise_46 (Eltwise, ADD)                       [b:1,h:12,w:12,c:32]                            4,608                  conv2d_42   |                                        Eltwise/add_[57]         
                                                                                                                              conv2d_45   | 
------ ----------------------------------------------- ----------------------- ----------------- ----------- -------------------------- --- ------------------ ------------------- ------------------------ 
47     conv2d_47 (Conv2D, CONV_2D)                     [b:1,h:12,w:12,c:192]   6,336/6,912           884,928                 eltwise_46   |                                        Conv2D_[58]              
       nl_47_nl (Nonlinearity, CONV_2D)                [b:1,h:12,w:12,c:192]                          27,648                  conv2d_47   |                    -27,648(-100.0%)    
------ ----------------------------------------------- ----------------------- ----------------- ----------- -------------------------- --- ------------------ ------------------- ------------------------ 
48     conv2d_48 (Conv2D, DEPTHWISE_CONV_2D)           [b:1,h:12,w:12,c:192]   1,920/2,496           249,024                   nl_47_nl   |                                        Pad_/Conv2D_[59, 60]     
       nl_48_nl (Nonlinearity, DEPTHWISE_CONV_2D)      [b:1,h:12,w:12,c:192]                          27,648                  conv2d_48   |                    -27,648(-100.0%)    
------ ----------------------------------------------- ----------------------- ----------------- ----------- -------------------------- --- ------------------ ------------------- ------------------------ 
49     conv2d_49 (Conv2D, CONV_2D)                     [b:1,h:12,w:12,c:32]    6,176/6,272           884,768                   nl_48_nl   |                                        Conv2D_[61]              
------ ----------------------------------------------- ----------------------- ----------------- ----------- -------------------------- --- ------------------ ------------------- ------------------------ 
50     eltwise_50 (Eltwise, ADD)                       [b:1,h:12,w:12,c:32]                            4,608                 eltwise_46   |                                        Eltwise/add_[62]         
                                                                                                                              conv2d_49   | 
------ ----------------------------------------------- ----------------------- ----------------- ----------- -------------------------- --- ------------------ ------------------- ------------------------ 
51     conv2d_51 (Conv2D, CONV_2D)                     [b:1,h:12,w:12,c:192]   6,336/6,912           884,928                 eltwise_50   |                                        Conv2D_[64]              
       nl_51_nl (Nonlinearity, CONV_2D)                [b:1,h:12,w:12,c:192]                          27,648                  conv2d_51   |                    -27,648(-100.0%)    
------ ----------------------------------------------- ----------------------- ----------------- ----------- -------------------------- --- ------------------ ------------------- ------------------------ 
52     pad_52 (Pad, PAD)                               [b:1,h:13,w:13,c:192]                                                   nl_51_nl   |                                        Pad_[65]                 
------ ----------------------------------------------- ----------------------- ----------------- ----------- -------------------------- --- ------------------ ------------------- ------------------------ 
53     conv2d_53 (Conv2D, DEPTHWISE_CONV_2D)           [b:1,h:6,w:6,c:192]     1,920/2,496            62,400                     pad_52   |                                        Conv2D_[66]              
       nl_53_nl (Nonlinearity, DEPTHWISE_CONV_2D)      [b:1,h:6,w:6,c:192]                             6,912                  conv2d_53   |                    -6,912(-100.0%)     
------ ----------------------------------------------- ----------------------- ----------------- ----------- -------------------------- --- ------------------ ------------------- ------------------------ 
54     conv2d_54 (Conv2D, CONV_2D)                     [b:1,h:6,w:6,c:56]      10,808/10,976         387,128                   nl_53_nl   |                                        Conv2D_[67]              
------ ----------------------------------------------- ----------------------- ----------------- ----------- -------------------------- --- ------------------ ------------------- ------------------------ 
55     conv2d_55 (Conv2D, CONV_2D)                     [b:1,h:6,w:6,c:336]     19,152/20,160         677,712                  conv2d_54   |                                        Conv2D_[68]              
       nl_55_nl (Nonlinearity, CONV_2D)                [b:1,h:6,w:6,c:336]                            12,096                  conv2d_55   |                    -12,096(-100.0%)    
------ ----------------------------------------------- ----------------------- ----------------- ----------- -------------------------- --- ------------------ ------------------- ------------------------ 
56     conv2d_56 (Conv2D, DEPTHWISE_CONV_2D)           [b:1,h:6,w:6,c:336]     3,360/4,368           109,200                   nl_55_nl   |                                        Pad_/Conv2D_[69, 70]     
       nl_56_nl (Nonlinearity, DEPTHWISE_CONV_2D)      [b:1,h:6,w:6,c:336]                            12,096                  conv2d_56   |                    -12,096(-100.0%)    
------ ----------------------------------------------- ----------------------- ----------------- ----------- -------------------------- --- ------------------ ------------------- ------------------------ 
57     conv2d_57 (Conv2D, CONV_2D)                     [b:1,h:6,w:6,c:56]      18,872/19,040         677,432                   nl_56_nl   |                                        Conv2D_[71]              
------ ----------------------------------------------- ----------------------- ----------------- ----------- -------------------------- --- ------------------ ------------------- ------------------------ 
58     eltwise_58 (Eltwise, ADD)                       [b:1,h:6,w:6,c:56]                              2,016                  conv2d_54   |                                        Eltwise/add_[72]         
                                                                                                                              conv2d_57   | 
------ ----------------------------------------------- ----------------------- ----------------- ----------- -------------------------- --- ------------------ ------------------- ------------------------ 
59     conv2d_59 (Conv2D, CONV_2D)                     [b:1,h:6,w:6,c:336]     19,152/20,160         677,712                 eltwise_58   |                                        Conv2D_[73]              
       nl_59_nl (Nonlinearity, CONV_2D)                [b:1,h:6,w:6,c:336]                            12,096                  conv2d_59   |                    -12,096(-100.0%)    
------ ----------------------------------------------- ----------------------- ----------------- ----------- -------------------------- --- ------------------ ------------------- ------------------------ 
60     conv2d_60 (Conv2D, DEPTHWISE_CONV_2D)           [b:1,h:6,w:6,c:336]     3,360/4,368           109,200                   nl_59_nl   |                                        Pad_/Conv2D_[74, 75]     
       nl_60_nl (Nonlinearity, DEPTHWISE_CONV_2D)      [b:1,h:6,w:6,c:336]                            12,096                  conv2d_60   |                    -12,096(-100.0%)    
------ ----------------------------------------------- ----------------------- ----------------- ----------- -------------------------- --- ------------------ ------------------- ------------------------ 
61     conv2d_61 (Conv2D, CONV_2D)                     [b:1,h:6,w:6,c:56]      18,872/19,040         677,432                   nl_60_nl   |                                        Conv2D_[76]              
------ ----------------------------------------------- ----------------------- ----------------- ----------- -------------------------- --- ------------------ ------------------- ------------------------ 
62     eltwise_62 (Eltwise, ADD)                       [b:1,h:6,w:6,c:56]                              2,016                 eltwise_58   |                                        Eltwise/add_[77]         
                                                                                                                              conv2d_61   | 
------ ----------------------------------------------- ----------------------- ----------------- ----------- -------------------------- --- ------------------ ------------------- ------------------------ 
63     conv2d_63 (Conv2D, CONV_2D)                     [b:1,h:6,w:6,c:336]     19,152/20,160         677,712                 eltwise_62   |                                        Conv2D_[78]              
       nl_63_nl (Nonlinearity, CONV_2D)                [b:1,h:6,w:6,c:336]                            12,096                  conv2d_63   |                    -12,096(-100.0%)    
------ ----------------------------------------------- ----------------------- ----------------- ----------- -------------------------- --- ------------------ ------------------- ------------------------ 
64     conv2d_64 (Conv2D, DEPTHWISE_CONV_2D)           [b:1,h:6,w:6,c:336]     3,360/4,368           109,200                   nl_63_nl   |                                        Pad_/Conv2D_[79, 80]     
       nl_64_nl (Nonlinearity, DEPTHWISE_CONV_2D)      [b:1,h:6,w:6,c:336]                            12,096                  conv2d_64   |                    -12,096(-100.0%)    
------ ----------------------------------------------- ----------------------- ----------------- ----------- -------------------------- --- ------------------ ------------------- ------------------------ 
65     conv2d_65 (Conv2D, CONV_2D)                     [b:1,h:6,w:6,c:112]     37,744/38,080       1,354,864                   nl_64_nl   |                                        Conv2D_[81]              
------ ----------------------------------------------- ----------------------- ----------------- ----------- -------------------------- --- ------------------ ------------------- ------------------------ 
66     conv2d_66 (Conv2D, CONV_2D)                     [b:1,h:6,w:6,c:1280]    144,640/148,480     5,162,240                  conv2d_65   |                                        Conv2D_[82]              
       nl_66_nl (Nonlinearity, CONV_2D)                [b:1,h:6,w:6,c:1280]                           46,080                  conv2d_66   |                    -46,080(-100.0%)    
------ ----------------------------------------------- ----------------------- ----------------- ----------- -------------------------- --- ------------------ ------------------- ------------------------ 
67     conv2d_67 (Conv2D, CONV_2D)                     [b:1,h:6,w:6,c:128]     163,968/164,352     5,898,368                   nl_66_nl   |                                        Conv2D_[83]              
------ ----------------------------------------------- ----------------------- ----------------- ----------- -------------------------- --- ------------------ ------------------- ------------------------ 
68     conv2d_68 (Conv2D, DEPTHWISE_CONV_2D)           [b:1,h:6,w:6,c:128]     1,280/1,664            41,600                  conv2d_67   |                                        Pad_/Conv2D_[84, 85]     
------ ----------------------------------------------- ----------------------- ----------------- ----------- -------------------------- --- ------------------ ------------------- ------------------------ 
69     conv2d_69 (Conv2D, CONV_2D)                     [b:1,h:6,w:6,c:128]     16,512/16,896         589,952                  conv2d_68   |                                        Conv2D_[86]              
       nl_69_nl (Nonlinearity, CONV_2D)                [b:1,h:6,w:6,c:128]                             4,608                  conv2d_69   |                    -4,608(-100.0%)     
------ ----------------------------------------------- ----------------------- ----------------- ----------- -------------------------- --- ------------------ ------------------- ------------------------ 
70     conv2d_70 (Conv2D, DEPTHWISE_CONV_2D)           [b:1,h:6,w:6,c:128]     1,280/1,664            41,600                   nl_69_nl   |                                        Pad_/Conv2D_[87, 88]     
------ ----------------------------------------------- ----------------------- ----------------- ----------- -------------------------- --- ------------------ ------------------- ------------------------ 
71     conv2d_71 (Conv2D, CONV_2D)                     [b:1,h:6,w:6,c:128]     16,512/16,896         589,952                  conv2d_70   |                                        Conv2D_[89]              
       nl_71_nl (Nonlinearity, CONV_2D)                [b:1,h:6,w:6,c:128]                             4,608                  conv2d_71   |                    -4,608(-100.0%)     
------ ----------------------------------------------- ----------------------- ----------------- ----------- -------------------------- --- ------------------ ------------------- ------------------------ 
72     conv2d_72 (Conv2D, DEPTHWISE_CONV_2D)           [b:1,h:6,w:6,c:128]     1,280/1,664            41,600                   nl_71_nl   |                                        Pad_/Conv2D_[90, 91]     
------ ----------------------------------------------- ----------------------- ----------------- ----------- -------------------------- --- ------------------ ------------------- ------------------------ 
73     conv2d_73 (Conv2D, CONV_2D)                     [b:1,h:6,w:6,c:128]     16,512/16,896         589,952                  conv2d_72   |                                        Conv2D_[92]              
       nl_73_nl (Nonlinearity, CONV_2D)                [b:1,h:6,w:6,c:128]                             4,608                  conv2d_73   |                    -4,608(-100.0%)     
------ ----------------------------------------------- ----------------------- ----------------- ----------- -------------------------- --- ------------------ ------------------- ------------------------ 
74     conv2d_74 (Conv2D, DEPTHWISE_CONV_2D)           [b:1,h:6,w:6,c:128]     1,280/1,664            41,600                   nl_73_nl   |                                        Pad_/Conv2D_[93, 94]     
------ ----------------------------------------------- ----------------------- ----------------- ----------- -------------------------- --- ------------------ ------------------- ------------------------ 
75     conv2d_75 (Conv2D, CONV_2D)                     [b:1,h:6,w:6,c:128]     16,512/16,896         589,952                  conv2d_74   |                                        Conv2D_[95]              
       nl_75_nl (Nonlinearity, CONV_2D)                [b:1,h:6,w:6,c:128]                             4,608                  conv2d_75   |                    -4,608(-100.0%)     
------ ----------------------------------------------- ----------------------- ----------------- ----------- -------------------------- --- ------------------ ------------------- ------------------------ 
76     conv2d_76 (Conv2D, DEPTHWISE_CONV_2D)           [b:1,h:6,w:6,c:128]     1,280/1,664            41,600                   nl_75_nl   |                                        Pad_/Conv2D_[96, 97]     
------ ----------------------------------------------- ----------------------- ----------------- ----------- -------------------------- --- ------------------ ------------------- ------------------------ 
77     conv2d_77 (Conv2D, CONV_2D)                     [b:1,h:6,w:6,c:25]      3,225/3,300           115,225                  conv2d_76   |                                        Conv2D_[98]              
------ ----------------------------------------------- ----------------------- ----------------- ----------- -------------------------- --- ------------------ ------------------- ------------------------ 
81     reshape_81 (Reshape, RESHAPE)                   [b:1,h:180,c:5]                                                        conv2d_77   |                                        
------ ----------------------------------------------- ----------------------- ----------------- ----------- -------------------------- --- ------------------ ------------------- ------------------------ 
82     conv2d_82 (Conv2D, DEPTHWISE_CONV_2D)           [b:1,h:6,w:6,c:128]     1,280/1,664            41,600                   nl_75_nl   |                                        Pad_/Conv2D_[99, 100]    
------ ----------------------------------------------- ----------------------- ----------------- ----------- -------------------------- --- ------------------ ------------------- ------------------------ 
83     conv2d_83 (Conv2D, CONV_2D)                     [b:1,h:6,w:6,c:20]      2,580/2,640            92,180                  conv2d_82   |                                        Conv2D_[101]             
------ ----------------------------------------------- ----------------------- ----------------- ----------- -------------------------- --- ------------------ ------------------- ------------------------ 
87     reshape_87 (Reshape, RESHAPE)                   [b:1,h:180,c:4]                                                        conv2d_83   |                                        
------ ----------------------------------------------- ----------------------- ----------------- ----------- -------------------------- --- ------------------ ------------------- ------------------------ 
94     conv2d_94 (Conv2D, DEPTHWISE_CONV_2D)           [b:1,h:3,w:3,c:128]     1,280/1,664            10,496                  conv2d_67   |                                        Pad_/Conv2D_[102, 103]   
------ ----------------------------------------------- ----------------------- ----------------- ----------- -------------------------- --- ------------------ ------------------- ------------------------ 
95     conv2d_95 (Conv2D, CONV_2D)                     [b:1,h:3,w:3,c:128]     16,512/16,896         147,584                  conv2d_94   |                                        Conv2D_[104]             
       nl_95_nl (Nonlinearity, CONV_2D)                [b:1,h:3,w:3,c:128]                             1,152                  conv2d_95   |                    -1,152(-100.0%)     
------ ----------------------------------------------- ----------------------- ----------------- ----------- -------------------------- --- ------------------ ------------------- ------------------------ 
96     conv2d_96 (Conv2D, DEPTHWISE_CONV_2D)           [b:1,h:3,w:3,c:128]     1,280/1,664            10,496                   nl_95_nl   |                                        Pad_/Conv2D_[105, 106]   
------ ----------------------------------------------- ----------------------- ----------------- ----------- -------------------------- --- ------------------ ------------------- ------------------------ 
97     conv2d_97 (Conv2D, CONV_2D)                     [b:1,h:3,w:3,c:128]     16,512/16,896         147,584                  conv2d_96   |                                        Conv2D_[107]             
       nl_97_nl (Nonlinearity, CONV_2D)                [b:1,h:3,w:3,c:128]                             1,152                  conv2d_97   |                    -1,152(-100.0%)     
------ ----------------------------------------------- ----------------------- ----------------- ----------- -------------------------- --- ------------------ ------------------- ------------------------ 
98     conv2d_98 (Conv2D, DEPTHWISE_CONV_2D)           [b:1,h:3,w:3,c:128]     1,280/1,664            10,496                   nl_97_nl   |                                        Pad_/Conv2D_[108, 109]   
------ ----------------------------------------------- ----------------------- ----------------- ----------- -------------------------- --- ------------------ ------------------- ------------------------ 
99     conv2d_99 (Conv2D, CONV_2D)                     [b:1,h:3,w:3,c:128]     16,512/16,896         147,584                  conv2d_98   |                                        Conv2D_[110]             
       nl_99_nl (Nonlinearity, CONV_2D)                [b:1,h:3,w:3,c:128]                             1,152                  conv2d_99   |                    -1,152(-100.0%)     
------ ----------------------------------------------- ----------------------- ----------------- ----------- -------------------------- --- ------------------ ------------------- ------------------------ 
100    conv2d_100 (Conv2D, DEPTHWISE_CONV_2D)          [b:1,h:3,w:3,c:128]     1,280/1,664            10,496                   nl_99_nl   |                                        Pad_/Conv2D_[111, 112]   
------ ----------------------------------------------- ----------------------- ----------------- ----------- -------------------------- --- ------------------ ------------------- ------------------------ 
101    conv2d_101 (Conv2D, CONV_2D)                    [b:1,h:3,w:3,c:128]     16,512/16,896         147,584                 conv2d_100   |                                        Conv2D_[113]             
       nl_101_nl (Nonlinearity, CONV_2D)               [b:1,h:3,w:3,c:128]                             1,152                 conv2d_101   |                    -1,152(-100.0%)     
------ ----------------------------------------------- ----------------------- ----------------- ----------- -------------------------- --- ------------------ ------------------- ------------------------ 
102    conv2d_102 (Conv2D, DEPTHWISE_CONV_2D)          [b:1,h:3,w:3,c:128]     1,280/1,664            10,496                  nl_101_nl   |                                        Pad_/Conv2D_[114, 115]   
------ ----------------------------------------------- ----------------------- ----------------- ----------- -------------------------- --- ------------------ ------------------- ------------------------ 
103    conv2d_103 (Conv2D, CONV_2D)                    [b:1,h:3,w:3,c:128]     16,512/16,896         147,584                 conv2d_102   |                                        Conv2D_[116]             
       nl_103_nl (Nonlinearity, CONV_2D)               [b:1,h:3,w:3,c:128]                             1,152                 conv2d_103   |                    -1,152(-100.0%)     
------ ----------------------------------------------- ----------------------- ----------------- ----------- -------------------------- --- ------------------ ------------------- ------------------------ 
104    conv2d_104 (Conv2D, DEPTHWISE_CONV_2D)          [b:1,h:3,w:3,c:128]     1,280/1,664            10,496                  nl_103_nl   |                                        Pad_/Conv2D_[117, 118]   
------ ----------------------------------------------- ----------------------- ----------------- ----------- -------------------------- --- ------------------ ------------------- ------------------------ 
105    conv2d_105 (Conv2D, CONV_2D)                    [b:1,h:3,w:3,c:25]      3,225/3,300            28,825                 conv2d_104   |                                        Conv2D_[119]             
------ ----------------------------------------------- ----------------------- ----------------- ----------- -------------------------- --- ------------------ ------------------- ------------------------ 
109    reshape_109 (Reshape, RESHAPE)                  [b:1,h:45,c:5]                                                        conv2d_105   |                                        
------ ----------------------------------------------- ----------------------- ----------------- ----------- -------------------------- --- ------------------ ------------------- ------------------------ 
110    conv2d_110 (Conv2D, DEPTHWISE_CONV_2D)          [b:1,h:3,w:3,c:128]     1,280/1,664            10,496                  nl_103_nl   |                                        Pad_/Conv2D_[120, 121]   
------ ----------------------------------------------- ----------------------- ----------------- ----------- -------------------------- --- ------------------ ------------------- ------------------------ 
111    conv2d_111 (Conv2D, CONV_2D)                    [b:1,h:3,w:3,c:20]      2,580/2,640            23,060                 conv2d_110   |                                        Conv2D_[122]             
------ ----------------------------------------------- ----------------------- ----------------- ----------- -------------------------- --- ------------------ ------------------- ------------------------ 
115    reshape_115 (Reshape, RESHAPE)                  [b:1,h:45,c:4]                                                        conv2d_111   |                                        
------ ----------------------------------------------- ----------------------- ----------------- ----------- -------------------------- --- ------------------ ------------------- ------------------------ 
122    conv2d_122 (Conv2D, DEPTHWISE_CONV_2D)          [b:1,h:2,w:2,c:128]     1,280/1,664             4,736                   nl_95_nl   |                                        Pad_/Conv2D_[123, 124]   
------ ----------------------------------------------- ----------------------- ----------------- ----------- -------------------------- --- ------------------ ------------------- ------------------------ 
123    conv2d_123 (Conv2D, CONV_2D)                    [b:1,h:2,w:2,c:128]     16,512/16,896          65,664                 conv2d_122   | -1,848(-10.9%)     -1,026(-1.6%)       Conv2D_[125]             
       nl_123_nl (Nonlinearity, CONV_2D)               [b:1,h:2,w:2,c:128]                               512                 conv2d_123   |                    -512(-100.0%)       
------ ----------------------------------------------- ----------------------- ----------------- ----------- -------------------------- --- ------------------ ------------------- ------------------------ 
124    conv2d_124 (Conv2D, DEPTHWISE_CONV_2D)          [b:1,h:2,w:2,c:128]     1,280/1,664             4,736                  nl_123_nl   | -182(-10.9%)       -518(-10.9%)        Pad_/Conv2D_[126, 127]   
------ ----------------------------------------------- ----------------------- ----------------- ----------- -------------------------- --- ------------------ ------------------- ------------------------ 
125    conv2d_125 (Conv2D, CONV_2D)                    [b:1,h:2,w:2,c:128]     16,512/16,896          65,664                 conv2d_124   | -4,624(-27.4%)     -8,082(-12.3%)      Conv2D_[128]             
       nl_125_nl (Nonlinearity, CONV_2D)               [b:1,h:2,w:2,c:128]                               512                 conv2d_125   |                    -512(-100.0%)       
------ ----------------------------------------------- ----------------------- ----------------- ----------- -------------------------- --- ------------------ ------------------- ------------------------ 
126    conv2d_126 (Conv2D, DEPTHWISE_CONV_2D)          [b:1,h:2,w:2,c:128]     1,280/1,664             4,736                  nl_125_nl   | -312(-18.8%)       -888(-18.8%)        Pad_/Conv2D_[129, 130]   
------ ----------------------------------------------- ----------------------- ----------------- ----------- -------------------------- --- ------------------ ------------------- ------------------------ 
127    conv2d_127 (Conv2D, CONV_2D)                    [b:1,h:2,w:2,c:128]     16,512/16,896          65,664                 conv2d_126   | -3,072(-18.2%)     -12,288(-18.7%)     Conv2D_[131]             
       nl_127_nl (Nonlinearity, CONV_2D)               [b:1,h:2,w:2,c:128]                               512                 conv2d_127   |                    -512(-100.0%)       
------ ----------------------------------------------- ----------------------- ----------------- ----------- -------------------------- --- ------------------ ------------------- ------------------------ 
128    conv2d_128 (Conv2D, DEPTHWISE_CONV_2D)          [b:1,h:2,w:2,c:128]     1,280/1,664             4,736                  nl_127_nl   |                                        Pad_/Conv2D_[132, 133]   
------ ----------------------------------------------- ----------------------- ----------------- ----------- -------------------------- --- ------------------ ------------------- ------------------------ 
129    conv2d_129 (Conv2D, CONV_2D)                    [b:1,h:2,w:2,c:128]     16,512/16,896          65,664                 conv2d_128   |                                        Conv2D_[134]             
       nl_129_nl (Nonlinearity, CONV_2D)               [b:1,h:2,w:2,c:128]                               512                 conv2d_129   |                    -512(-100.0%)       
------ ----------------------------------------------- ----------------------- ----------------- ----------- -------------------------- --- ------------------ ------------------- ------------------------ 
130    conv2d_130 (Conv2D, DEPTHWISE_CONV_2D)          [b:1,h:2,w:2,c:128]     1,280/1,664             4,736                  nl_129_nl   |                                        Pad_/Conv2D_[135, 136]   
------ ----------------------------------------------- ----------------------- ----------------- ----------- -------------------------- --- ------------------ ------------------- ------------------------ 
131    conv2d_131 (Conv2D, CONV_2D)                    [b:1,h:2,w:2,c:128]     16,512/16,896          65,664                 conv2d_130   |                                        Conv2D_[137]             
       nl_131_nl (Nonlinearity, CONV_2D)               [b:1,h:2,w:2,c:128]                               512                 conv2d_131   |                    -512(-100.0%)       
------ ----------------------------------------------- ----------------------- ----------------- ----------- -------------------------- --- ------------------ ------------------- ------------------------ 
132    conv2d_132 (Conv2D, DEPTHWISE_CONV_2D)          [b:1,h:2,w:2,c:128]     1,280/1,664             4,736                  nl_131_nl   |                                        Pad_/Conv2D_[138, 139]   
------ ----------------------------------------------- ----------------------- ----------------- ----------- -------------------------- --- ------------------ ------------------- ------------------------ 
133    conv2d_133 (Conv2D, CONV_2D)                    [b:1,h:2,w:2,c:25]      3,225/3,300            12,825                 conv2d_132   |                                        Conv2D_[140]             
------ ----------------------------------------------- ----------------------- ----------------- ----------- -------------------------- --- ------------------ ------------------- ------------------------ 
137    reshape_137 (Reshape, RESHAPE)                  [b:1,h:20,c:5]                                                        conv2d_133   |                                        
------ ----------------------------------------------- ----------------------- ----------------- ----------- -------------------------- --- ------------------ ------------------- ------------------------ 
138    conv2d_138 (Conv2D, DEPTHWISE_CONV_2D)          [b:1,h:2,w:2,c:128]     1,280/1,664             4,736                  nl_131_nl   |                                        Pad_/Conv2D_[141, 142]   
------ ----------------------------------------------- ----------------------- ----------------- ----------- -------------------------- --- ------------------ ------------------- ------------------------ 
139    conv2d_139 (Conv2D, CONV_2D)                    [b:1,h:2,w:2,c:20]      2,580/2,640            10,260                 conv2d_138   |                                        Conv2D_[143]             
------ ----------------------------------------------- ----------------------- ----------------- ----------- -------------------------- --- ------------------ ------------------- ------------------------ 
143    reshape_143 (Reshape, RESHAPE)                  [b:1,h:20,c:4]                                                        conv2d_139   |                                        
------ ----------------------------------------------- ----------------------- ----------------- ----------- -------------------------- --- ------------------ ------------------- ------------------------ 
150    upsample_150 (Upsample, RESIZE_BILINEAR)        [b:1,h:12,w:12,c:128]                          73,728                  conv2d_67   |                                        Upsample_[144]           
------ ----------------------------------------------- ----------------------- ----------------- ----------- -------------------------- --- ------------------ ------------------- ------------------------ 
151    conv2d_151 (Conv2D, CONV_2D)                    [b:1,h:12,w:12,c:128]   4,224/4,608           589,952                 eltwise_50   |                                        Conv2D_[63]              
------ ----------------------------------------------- ----------------------- ----------------- ----------- -------------------------- --- ------------------ ------------------- ------------------------ 
152    eltwise_152 (Eltwise, ADD)                      [b:1,h:12,w:12,c:128]                          18,432                 conv2d_151   |                                        Eltwise/add_[145]        
                                                                                                                           upsample_150   | 
------ ----------------------------------------------- ----------------------- ----------------- ----------- -------------------------- --- ------------------ ------------------- ------------------------ 
153    conv2d_153 (Conv2D, DEPTHWISE_CONV_2D)          [b:1,h:12,w:12,c:128]   1,280/1,664           166,016                eltwise_152   |                                        Pad_/Conv2D_[146, 147]   
------ ----------------------------------------------- ----------------------- ----------------- ----------- -------------------------- --- ------------------ ------------------- ------------------------ 
154    conv2d_154 (Conv2D, CONV_2D)                    [b:1,h:12,w:12,c:128]   16,512/16,896       2,359,424                 conv2d_153   |                                        Conv2D_[148]             
       nl_154_nl (Nonlinearity, CONV_2D)               [b:1,h:12,w:12,c:128]                          18,432                 conv2d_154   |                    -18,432(-100.0%)    
------ ----------------------------------------------- ----------------------- ----------------- ----------- -------------------------- --- ------------------ ------------------- ------------------------ 
155    conv2d_155 (Conv2D, DEPTHWISE_CONV_2D)          [b:1,h:12,w:12,c:128]   1,280/1,664           166,016                  nl_154_nl   |                                        Pad_/Conv2D_[149, 150]   
------ ----------------------------------------------- ----------------------- ----------------- ----------- -------------------------- --- ------------------ ------------------- ------------------------ 
156    conv2d_156 (Conv2D, CONV_2D)                    [b:1,h:12,w:12,c:128]   16,512/16,896       2,359,424                 conv2d_155   |                                        Conv2D_[151]             
       nl_156_nl (Nonlinearity, CONV_2D)               [b:1,h:12,w:12,c:128]                          18,432                 conv2d_156   |                    -18,432(-100.0%)    
------ ----------------------------------------------- ----------------------- ----------------- ----------- -------------------------- --- ------------------ ------------------- ------------------------ 
157    conv2d_157 (Conv2D, DEPTHWISE_CONV_2D)          [b:1,h:12,w:12,c:128]   1,280/1,664           166,016                  nl_156_nl   |                                        Pad_/Conv2D_[152, 153]   
------ ----------------------------------------------- ----------------------- ----------------- ----------- -------------------------- --- ------------------ ------------------- ------------------------ 
158    conv2d_158 (Conv2D, CONV_2D)                    [b:1,h:12,w:12,c:128]   16,512/16,896       2,359,424                 conv2d_157   |                                        Conv2D_[154]             
       nl_158_nl (Nonlinearity, CONV_2D)               [b:1,h:12,w:12,c:128]                          18,432                 conv2d_158   |                    -18,432(-100.0%)    
------ ----------------------------------------------- ----------------------- ----------------- ----------- -------------------------- --- ------------------ ------------------- ------------------------ 
159    conv2d_159 (Conv2D, DEPTHWISE_CONV_2D)          [b:1,h:12,w:12,c:128]   1,280/1,664           166,016                  nl_158_nl   |                                        Pad_/Conv2D_[155, 156]   
------ ----------------------------------------------- ----------------------- ----------------- ----------- -------------------------- --- ------------------ ------------------- ------------------------ 
160    conv2d_160 (Conv2D, CONV_2D)                    [b:1,h:12,w:12,c:128]   16,512/16,896       2,359,424                 conv2d_159   |                                        Conv2D_[157]             
       nl_160_nl (Nonlinearity, CONV_2D)               [b:1,h:12,w:12,c:128]                          18,432                 conv2d_160   |                    -18,432(-100.0%)    
------ ----------------------------------------------- ----------------------- ----------------- ----------- -------------------------- --- ------------------ ------------------- ------------------------ 
161    conv2d_161 (Conv2D, DEPTHWISE_CONV_2D)          [b:1,h:12,w:12,c:128]   1,280/1,664           166,016                  nl_160_nl   |                                        Pad_/Conv2D_[158, 159]   
------ ----------------------------------------------- ----------------------- ----------------- ----------- -------------------------- --- ------------------ ------------------- ------------------------ 
162    conv2d_162 (Conv2D, CONV_2D)                    [b:1,h:12,w:12,c:128]   16,512/16,896       2,359,424                 conv2d_161   |                                        Conv2D_[160]             
       nl_162_nl (Nonlinearity, CONV_2D)               [b:1,h:12,w:12,c:128]                          18,432                 conv2d_162   |                    -18,432(-100.0%)    
------ ----------------------------------------------- ----------------------- ----------------- ----------- -------------------------- --- ------------------ ------------------- ------------------------ 
163    conv2d_163 (Conv2D, DEPTHWISE_CONV_2D)          [b:1,h:12,w:12,c:128]   1,280/1,664           166,016                  nl_162_nl   |                                        Pad_/Conv2D_[161, 162]   
------ ----------------------------------------------- ----------------------- ----------------- ----------- -------------------------- --- ------------------ ------------------- ------------------------ 
164    conv2d_164 (Conv2D, CONV_2D)                    [b:1,h:12,w:12,c:25]    3,225/3,300           460,825                 conv2d_163   |                                        Conv2D_[163]             
------ ----------------------------------------------- ----------------------- ----------------- ----------- -------------------------- --- ------------------ ------------------- ------------------------ 
168    reshape_168 (Reshape, RESHAPE)                  [b:1,h:720,c:5]                                                       conv2d_164   |                                        
------ ----------------------------------------------- ----------------------- ----------------- ----------- -------------------------- --- ------------------ ------------------- ------------------------ 
169    conv2d_169 (Conv2D, DEPTHWISE_CONV_2D)          [b:1,h:12,w:12,c:128]   1,280/1,664           166,016                  nl_162_nl   |                                        Pad_/Conv2D_[164, 165]   
------ ----------------------------------------------- ----------------------- ----------------- ----------- -------------------------- --- ------------------ ------------------- ------------------------ 
170    conv2d_170 (Conv2D, CONV_2D)                    [b:1,h:12,w:12,c:20]    2,580/2,640           368,660                 conv2d_169   |                                        Conv2D_[166]             
------ ----------------------------------------------- ----------------------- ----------------- ----------- -------------------------- --- ------------------ ------------------- ------------------------ 
174    reshape_174 (Reshape, RESHAPE)                  [b:1,h:720,c:4]                                                       conv2d_170   |                                        
------ ----------------------------------------------- ----------------------- ----------------- ----------- -------------------------- --- ------------------ ------------------- ------------------------ 
181    upsample_181 (Upsample, RESIZE_BILINEAR)        [b:1,h:24,w:24,c:128]                         294,912                  nl_154_nl   |                                        Upsample_[167]           
------ ----------------------------------------------- ----------------------- ----------------- ----------- -------------------------- --- ------------------ ------------------- ------------------------ 
182    conv2d_182 (Conv2D, CONV_2D)                    [b:1,h:24,w:24,c:128]   2,176/2,560         1,179,776                 eltwise_23   |                                        Conv2D_[29]              
------ ----------------------------------------------- ----------------------- ----------------- ----------- -------------------------- --- ------------------ ------------------- ------------------------ 
183    eltwise_183 (Eltwise, ADD)                      [b:1,h:24,w:24,c:128]                          73,728                 conv2d_182   |                                        Eltwise/add_[168]        
                                                                                                                           upsample_181   | 
------ ----------------------------------------------- ----------------------- ----------------- ----------- -------------------------- --- ------------------ ------------------- ------------------------ 
184    conv2d_184 (Conv2D, DEPTHWISE_CONV_2D)          [b:1,h:24,w:24,c:128]   1,280/1,664           663,680                eltwise_183   |                                        Pad_/Conv2D_[169, 170]   
------ ----------------------------------------------- ----------------------- ----------------- ----------- -------------------------- --- ------------------ ------------------- ------------------------ 
185    conv2d_185 (Conv2D, CONV_2D)                    [b:1,h:24,w:24,c:128]   16,512/16,896       9,437,312                 conv2d_184   |                                        Conv2D_[171]             
       nl_185_nl (Nonlinearity, CONV_2D)               [b:1,h:24,w:24,c:128]                          73,728                 conv2d_185   |                    -73,728(-100.0%)    
------ ----------------------------------------------- ----------------------- ----------------- ----------- -------------------------- --- ------------------ ------------------- ------------------------ 
186    conv2d_186 (Conv2D, DEPTHWISE_CONV_2D)          [b:1,h:24,w:24,c:128]   1,280/1,664           663,680                  nl_185_nl   |                                        Pad_/Conv2D_[172, 173]   
------ ----------------------------------------------- ----------------------- ----------------- ----------- -------------------------- --- ------------------ ------------------- ------------------------ 
187    conv2d_187 (Conv2D, CONV_2D)                    [b:1,h:24,w:24,c:128]   16,512/16,896       9,437,312                 conv2d_186   |                                        Conv2D_[174]             
       nl_187_nl (Nonlinearity, CONV_2D)               [b:1,h:24,w:24,c:128]                          73,728                 conv2d_187   |                    -73,728(-100.0%)    
------ ----------------------------------------------- ----------------------- ----------------- ----------- -------------------------- --- ------------------ ------------------- ------------------------ 
188    conv2d_188 (Conv2D, DEPTHWISE_CONV_2D)          [b:1,h:24,w:24,c:128]   1,280/1,664           663,680                  nl_187_nl   |                                        Pad_/Conv2D_[175, 176]   
------ ----------------------------------------------- ----------------------- ----------------- ----------- -------------------------- --- ------------------ ------------------- ------------------------ 
189    conv2d_189 (Conv2D, CONV_2D)                    [b:1,h:24,w:24,c:128]   16,512/16,896       9,437,312                 conv2d_188   |                                        Conv2D_[177]             
       nl_189_nl (Nonlinearity, CONV_2D)               [b:1,h:24,w:24,c:128]                          73,728                 conv2d_189   |                    -73,728(-100.0%)    
------ ----------------------------------------------- ----------------------- ----------------- ----------- -------------------------- --- ------------------ ------------------- ------------------------ 
190    conv2d_190 (Conv2D, DEPTHWISE_CONV_2D)          [b:1,h:24,w:24,c:128]   1,280/1,664           663,680                  nl_189_nl   |                                        Pad_/Conv2D_[178, 179]   
------ ----------------------------------------------- ----------------------- ----------------- ----------- -------------------------- --- ------------------ ------------------- ------------------------ 
191    conv2d_191 (Conv2D, CONV_2D)                    [b:1,h:24,w:24,c:128]   16,512/16,896       9,437,312                 conv2d_190   |                                        Conv2D_[180]             
       nl_191_nl (Nonlinearity, CONV_2D)               [b:1,h:24,w:24,c:128]                          73,728                 conv2d_191   |                    -73,728(-100.0%)    
------ ----------------------------------------------- ----------------------- ----------------- ----------- -------------------------- --- ------------------ ------------------- ------------------------ 
192    conv2d_192 (Conv2D, DEPTHWISE_CONV_2D)          [b:1,h:24,w:24,c:128]   1,280/1,664           663,680                  nl_191_nl   |                                        Pad_/Conv2D_[181, 182]   
------ ----------------------------------------------- ----------------------- ----------------- ----------- -------------------------- --- ------------------ ------------------- ------------------------ 
193    conv2d_193 (Conv2D, CONV_2D)                    [b:1,h:24,w:24,c:128]   16,512/16,896       9,437,312                 conv2d_192   |                                        Conv2D_[183]             
       nl_193_nl (Nonlinearity, CONV_2D)               [b:1,h:24,w:24,c:128]                          73,728                 conv2d_193   |                    -73,728(-100.0%)    
------ ----------------------------------------------- ----------------------- ----------------- ----------- -------------------------- --- ------------------ ------------------- ------------------------ 
194    conv2d_194 (Conv2D, DEPTHWISE_CONV_2D)          [b:1,h:24,w:24,c:128]   1,280/1,664           663,680                  nl_193_nl   |                                        Pad_/Conv2D_[184, 185]   
------ ----------------------------------------------- ----------------------- ----------------- ----------- -------------------------- --- ------------------ ------------------- ------------------------ 
195    conv2d_195 (Conv2D, CONV_2D)                    [b:1,h:24,w:24,c:25]    3,225/3,300         1,843,225                 conv2d_194   |                                        Conv2D_[186]             
------ ----------------------------------------------- ----------------------- ----------------- ----------- -------------------------- --- ------------------ ------------------- ------------------------ 
199    reshape_199 (Reshape, RESHAPE)                  [b:1,h:2880,c:5]                                                      conv2d_195   |                                        
------ ----------------------------------------------- ----------------------- ----------------- ----------- -------------------------- --- ------------------ ------------------- ------------------------ 
200    concat_200 (Concat, CONCATENATION)              [b:1,h:3845,c:5]                                                     reshape_199   |                                        Concat_[187]             
                                                                                                                            reshape_168   | 
                                                                                                                             reshape_81   | 
                                                                                                                            reshape_109   | 
                                                                                                                            reshape_137   | 
------ ----------------------------------------------- ----------------------- ----------------- ----------- -------------------------- --- ------------------ ------------------- ------------------------ 
201    nl_201 (Nonlinearity, SOFTMAX)                  [b:1,h:3845,c:5]                              288,375                 concat_200   |                                        Nonlinearity_[188]       
------ ----------------------------------------------- ----------------------- ----------------- ----------- -------------------------- --- ------------------ ------------------- ------------------------ 
202    conversion_202 (Conversion, DEQUANTIZE)         [b:1,h:3845,c:5]                               38,450                     nl_201   |                                        Conversion_[o][189]      
------ ----------------------------------------------- ----------------------- ----------------- ----------- -------------------------- --- ------------------ ------------------- ------------------------ 
203    conv2d_203 (Conv2D, DEPTHWISE_CONV_2D)          [b:1,h:24,w:24,c:128]   1,280/1,664           663,680                  nl_193_nl   |                                        Pad_/Conv2D_[190, 191]   
------ ----------------------------------------------- ----------------------- ----------------- ----------- -------------------------- --- ------------------ ------------------- ------------------------ 
204    conv2d_204 (Conv2D, CONV_2D)                    [b:1,h:24,w:24,c:20]    2,580/2,640         1,474,580                 conv2d_203   |                                        Conv2D_[192]             
------ ----------------------------------------------- ----------------------- ----------------- ----------- -------------------------- --- ------------------ ------------------- ------------------------ 
208    reshape_208 (Reshape, RESHAPE)                  [b:1,h:2880,c:4]                                                      conv2d_204   |                                        
------ ----------------------------------------------- ----------------------- ----------------- ----------- -------------------------- --- ------------------ ------------------- ------------------------ 
209    concat_209 (Concat, CONCATENATION)              [b:1,h:3845,c:4]                                                     reshape_208   |                                        Concat_[193]             
                                                                                                                            reshape_174   | 
                                                                                                                             reshape_87   | 
                                                                                                                            reshape_115   | 
                                                                                                                            reshape_143   | 
------ ----------------------------------------------- ----------------------- ----------------- ----------- -------------------------- --- ------------------ ------------------- ------------------------ 
210    conversion_210 (Conversion, DEQUANTIZE)         [b:1,h:3845,c:4]                               30,760                 concat_209   |                                        Conversion_[o][194]      
------ ----------------------------------------------- ----------------------- ----------------- ----------- -------------------------- --- ------------------ ------------------- ------------------------ 
217    concat_217_const (Placeholder, CONCATENATION)   [b:1,h:3845,c:4]        15,380/15,380                                              | -15,380(-100.0%)                       
------ ----------------------------------------------- ----------------------- ----------------- ----------- -------------------------- --- ------------------ ------------------- ------------------------ 
218    conversion_218 (Conversion, DEQUANTIZE)         [b:1,h:3845,c:4]                               30,760           concat_217_const   | +15,380(+100.0%)                       Conversion_[o][0]        
------ ----------------------------------------------- ----------------------- ----------------- ----------- -------------------------- --- ------------------ ------------------- ------------------------ 
model/c-model: macc=126,840,794/124,403,144 -2,437,650(-1.9%) weights=1,088,888/1,078,852 -10,036(-0.9%) activations=--/805,280 io=--/0



Generated C-graph summary
------------------------------------------------------------------------------------------------------------------------
model name            : quantized_model
c-name                : network
c-node #              : 195
c-array #             : 567
activations size      : 805280 (3 segments)
weights size          : 1078852 (247 segments)
macc                  : 124403144
inputs                : ['serving_default_input_10_output']
outputs               : ['conversion_202_output', 'conversion_210_output', 'conversion_218_output']

C-Arrays (567)
------ --------------------------------- --------------- ---------------------------- ----------- --------- 
c_id   name (*_array)                    item/size       domain/mem-pool              c-type      comment   
------ --------------------------------- --------------- ---------------------------- ----------- --------- 
0      concat_200_output                 19225/19225     activations/AXIRAM           s8                    
1      concat_209_output                 15380/15380     activations/AXIRAM           s8                    
2      concat_217_const                  15380/15380     weights/concat_217_const     const s8              
3      conv2d_100_bias                   128/512         weights/conv2d_100_bias      const s32             
4      conv2d_100_output                 1152/1152       activations/AXIRAM           s8                    
5      conv2d_100_pad_before_output      3200/3200       activations/AXIRAM           s8                    
6      conv2d_100_scratch0               4737/4737       activations/DTCMRAM          s8                    
7      conv2d_100_weights                1152/1152       weights/conv2d_100_weights   const s8              
8      conv2d_101_bias                   128/512         weights/conv2d_101_bias      const s32             
9      conv2d_101_output                 1152/1152       activations/AXIRAM           s8                    
10     conv2d_101_scratch0               1792/1792       activations/DTCMRAM          s8                    
11     conv2d_101_weights                16384/16384     weights/conv2d_101_weights   const s8              
12     conv2d_102_bias                   128/512         weights/conv2d_102_bias      const s32             
13     conv2d_102_output                 1152/1152       activations/AXIRAM           s8                    
14     conv2d_102_pad_before_output      3200/3200       activations/AXIRAM           s8                    
15     conv2d_102_scratch0               4737/4737       activations/DTCMRAM          s8                    
16     conv2d_102_weights                1152/1152       weights/conv2d_102_weights   const s8              
17     conv2d_103_bias                   128/512         weights/conv2d_103_bias      const s32             
18     conv2d_103_output                 1152/1152       activations/AXIRAM           s8                    
19     conv2d_103_scratch0               1792/1792       activations/DTCMRAM          s8                    
20     conv2d_103_weights                16384/16384     weights/conv2d_103_weights   const s8              
21     conv2d_104_bias                   128/512         weights/conv2d_104_bias      const s32             
22     conv2d_104_output                 1152/1152       activations/AXIRAM           s8                    
23     conv2d_104_pad_before_output      3200/3200       activations/AXIRAM           s8                    
24     conv2d_104_scratch0               4737/4737       activations/DTCMRAM          s8                    
25     conv2d_104_weights                1152/1152       weights/conv2d_104_weights   const s8              
26     conv2d_105_bias                   25/100          weights/conv2d_105_bias      const s32             
27     conv2d_105_output                 225/225         activations/AXIRAM           s8                    
28     conv2d_105_scratch0               762/762         activations/DTCMRAM          s8                    
29     conv2d_105_weights                3200/3200       weights/conv2d_105_weights   const s8              
30     conv2d_10_bias                    8/32            weights/conv2d_10_bias       const s32             
31     conv2d_10_output                  18432/18432     activations/AXIRAM           s8                    
32     conv2d_10_scratch0                272/272         activations/DTCMRAM          s8                    
33     conv2d_10_weights                 384/384         weights/conv2d_10_weights    const s8              
34     conv2d_110_bias                   128/512         weights/conv2d_110_bias      const s32             
35     conv2d_110_output                 1152/1152       activations/AXIRAM           s8                    
36     conv2d_110_pad_before_output      3200/3200       activations/AXIRAM           s8                    
37     conv2d_110_scratch0               4737/4737       activations/DTCMRAM          s8                    
38     conv2d_110_weights                1152/1152       weights/conv2d_110_weights   const s8              
39     conv2d_111_bias                   20/80           weights/conv2d_111_bias      const s32             
40     conv2d_111_output                 180/180         activations/AXIRAM           s8                    
41     conv2d_111_scratch0               712/712         activations/DTCMRAM          s8                    
42     conv2d_111_weights                2560/2560       weights/conv2d_111_weights   const s8              
43     conv2d_122_bias                   128/512         weights/conv2d_122_bias      const s32             
44     conv2d_122_output                 512/512         activations/AXIRAM           s8                    
45     conv2d_122_pad_before_output      3200/3200       activations/AXIRAM           s8                    
46     conv2d_122_scratch0               4737/4737       activations/DTCMRAM          s8                    
47     conv2d_122_weights                1152/1152       weights/conv2d_122_weights   const s8              
48     conv2d_123_bias                   114/456         weights/conv2d_123_bias      const s32             
49     conv2d_123_output                 456/456         activations/AXIRAM           s8                    
50     conv2d_123_scratch0               1652/1652       activations/DTCMRAM          s8                    
51     conv2d_123_weights                14592/14592     weights/conv2d_123_weights   const s8              
52     conv2d_124_bias                   114/456         weights/conv2d_124_bias      const s32             
53     conv2d_124_output                 456/456         activations/AXIRAM           s8                    
54     conv2d_124_pad_before_output      1824/1824       activations/AXIRAM           s8                    
55     conv2d_124_scratch0               4219/4219       activations/DTCMRAM          s8                    
56     conv2d_124_weights                1026/1026       weights/conv2d_124_weights   const s8              
57     conv2d_125_bias                   104/416         weights/conv2d_125_bias      const s32             
58     conv2d_125_output                 416/416         activations/AXIRAM           s8                    
59     conv2d_125_scratch0               1496/1496       activations/DTCMRAM          s8                    
60     conv2d_125_weights                11856/11856     weights/conv2d_125_weights   const s8              
61     conv2d_126_bias                   104/416         weights/conv2d_126_bias      const s32             
62     conv2d_126_output                 416/416         activations/AXIRAM           s8                    
63     conv2d_126_pad_before_output      1664/1664       activations/AXIRAM           s8                    
64     conv2d_126_scratch0               3849/3849       activations/DTCMRAM          s8                    
65     conv2d_126_weights                936/936         weights/conv2d_126_weights   const s8              
66     conv2d_127_bias                   128/512         weights/conv2d_127_bias      const s32             
67     conv2d_127_output                 512/512         activations/AXIRAM           s8                    
68     conv2d_127_scratch0               1696/1696       activations/DTCMRAM          s8                    
69     conv2d_127_weights                13312/13312     weights/conv2d_127_weights   const s8              
70     conv2d_128_bias                   128/512         weights/conv2d_128_bias      const s32             
71     conv2d_128_output                 512/512         activations/AXIRAM           s8                    
72     conv2d_128_pad_before_output      2048/2048       activations/AXIRAM           s8                    
73     conv2d_128_scratch0               4737/4737       activations/DTCMRAM          s8                    
74     conv2d_128_weights                1152/1152       weights/conv2d_128_weights   const s8              
75     conv2d_129_bias                   128/512         weights/conv2d_129_bias      const s32             
76     conv2d_129_output                 512/512         activations/AXIRAM           s8                    
77     conv2d_129_scratch0               1792/1792       activations/DTCMRAM          s8                    
78     conv2d_129_weights                16384/16384     weights/conv2d_129_weights   const s8              
79     conv2d_12_bias                    48/192          weights/conv2d_12_bias       const s32             
80     conv2d_12_output                  110592/110592   activations/AXIRAM           s8                    
81     conv2d_12_scratch0                512/512         activations/DTCMRAM          s8                    
82     conv2d_12_weights                 384/384         weights/conv2d_12_weights    const s8              
83     conv2d_130_bias                   128/512         weights/conv2d_130_bias      const s32             
84     conv2d_130_output                 512/512         activations/AXIRAM           s8                    
85     conv2d_130_pad_before_output      2048/2048       activations/AXIRAM           s8                    
86     conv2d_130_scratch0               4737/4737       activations/DTCMRAM          s8                    
87     conv2d_130_weights                1152/1152       weights/conv2d_130_weights   const s8              
88     conv2d_131_bias                   128/512         weights/conv2d_131_bias      const s32             
89     conv2d_131_output                 512/512         activations/AXIRAM           s8                    
90     conv2d_131_scratch0               1792/1792       activations/DTCMRAM          s8                    
91     conv2d_131_weights                16384/16384     weights/conv2d_131_weights   const s8              
92     conv2d_132_bias                   128/512         weights/conv2d_132_bias      const s32             
93     conv2d_132_output                 512/512         activations/AXIRAM           s8                    
94     conv2d_132_pad_before_output      2048/2048       activations/AXIRAM           s8                    
95     conv2d_132_scratch0               4737/4737       activations/DTCMRAM          s8                    
96     conv2d_132_weights                1152/1152       weights/conv2d_132_weights   const s8              
97     conv2d_133_bias                   25/100          weights/conv2d_133_bias      const s32             
98     conv2d_133_output                 100/100         activations/AXIRAM           s8                    
99     conv2d_133_scratch0               762/762         activations/DTCMRAM          s8                    
100    conv2d_133_weights                3200/3200       weights/conv2d_133_weights   const s8              
101    conv2d_138_bias                   128/512         weights/conv2d_138_bias      const s32             
102    conv2d_138_output                 512/512         activations/AXIRAM           s8                    
103    conv2d_138_pad_before_output      2048/2048       activations/AXIRAM           s8                    
104    conv2d_138_scratch0               4737/4737       activations/DTCMRAM          s8                    
105    conv2d_138_weights                1152/1152       weights/conv2d_138_weights   const s8              
106    conv2d_139_bias                   20/80           weights/conv2d_139_bias      const s32             
107    conv2d_139_output                 80/80           activations/AXIRAM           s8                    
108    conv2d_139_scratch0               712/712         activations/DTCMRAM          s8                    
109    conv2d_139_weights                2560/2560       weights/conv2d_139_weights   const s8              
110    conv2d_14_bias                    48/192          weights/conv2d_14_bias       const s32             
111    conv2d_14_output                  27648/27648     activations/AXIRAM           s8                    
112    conv2d_14_pad_before_output       115248/115248   activations/AXIRAM           s8                    
113    conv2d_14_scratch0                1777/1777       activations/DTCMRAM          s8                    
114    conv2d_14_weights                 432/432         weights/conv2d_14_weights    const s8              
115    conv2d_151_bias                   128/512         weights/conv2d_151_bias      const s32             
116    conv2d_151_output                 18432/18432     activations/AXIRAM           s8                    
117    conv2d_151_scratch0               1408/1408       activations/DTCMRAM          s8                    
118    conv2d_151_weights                4096/4096       weights/conv2d_151_weights   const s8              
119    conv2d_153_bias                   128/512         weights/conv2d_153_bias      const s32             
120    conv2d_153_output                 18432/18432     activations/AXIRAM           s8                    
121    conv2d_153_pad_before_output      25088/25088     activations/AXIRAM           s8                    
122    conv2d_153_scratch0               4737/4737       activations/DTCMRAM          s8                    
123    conv2d_153_weights                1152/1152       weights/conv2d_153_weights   const s8              
124    conv2d_154_bias                   128/512         weights/conv2d_154_bias      const s32             
125    conv2d_154_output                 18432/18432     activations/AXIRAM           s8                    
126    conv2d_154_scratch0               1792/1792       activations/DTCMRAM          s8                    
127    conv2d_154_weights                16384/16384     weights/conv2d_154_weights   const s8              
128    conv2d_155_bias                   128/512         weights/conv2d_155_bias      const s32             
129    conv2d_155_output                 18432/18432     activations/AXIRAM           s8                    
130    conv2d_155_pad_before_output      25088/25088     activations/AXIRAM           s8                    
131    conv2d_155_scratch0               4737/4737       activations/DTCMRAM          s8                    
132    conv2d_155_weights                1152/1152       weights/conv2d_155_weights   const s8              
133    conv2d_156_bias                   128/512         weights/conv2d_156_bias      const s32             
134    conv2d_156_output                 18432/18432     activations/AXIRAM           s8                    
135    conv2d_156_scratch0               1792/1792       activations/DTCMRAM          s8                    
136    conv2d_156_weights                16384/16384     weights/conv2d_156_weights   const s8              
137    conv2d_157_bias                   128/512         weights/conv2d_157_bias      const s32             
138    conv2d_157_output                 18432/18432     activations/AXIRAM           s8                    
139    conv2d_157_pad_before_output      25088/25088     activations/AXIRAM           s8                    
140    conv2d_157_scratch0               4737/4737       activations/DTCMRAM          s8                    
141    conv2d_157_weights                1152/1152       weights/conv2d_157_weights   const s8              
142    conv2d_158_bias                   128/512         weights/conv2d_158_bias      const s32             
143    conv2d_158_output                 18432/18432     activations/AXIRAM           s8                    
144    conv2d_158_scratch0               1792/1792       activations/DTCMRAM          s8                    
145    conv2d_158_weights                16384/16384     weights/conv2d_158_weights   const s8              
146    conv2d_159_bias                   128/512         weights/conv2d_159_bias      const s32             
147    conv2d_159_output                 18432/18432     activations/AXIRAM           s8                    
148    conv2d_159_pad_before_output      25088/25088     activations/AXIRAM           s8                    
149    conv2d_159_scratch0               4737/4737       activations/DTCMRAM          s8                    
150    conv2d_159_weights                1152/1152       weights/conv2d_159_weights   const s8              
151    conv2d_15_bias                    16/64           weights/conv2d_15_bias       const s32             
152    conv2d_15_output                  9216/9216       activations/AXIRAM           s8                    
153    conv2d_15_scratch0                352/352         activations/DTCMRAM          s8                    
154    conv2d_15_weights                 768/768         weights/conv2d_15_weights    const s8              
155    conv2d_160_bias                   128/512         weights/conv2d_160_bias      const s32             
156    conv2d_160_output                 18432/18432     activations/AXIRAM           s8                    
157    conv2d_160_scratch0               1792/1792       activations/DTCMRAM          s8                    
158    conv2d_160_weights                16384/16384     weights/conv2d_160_weights   const s8              
159    conv2d_161_bias                   128/512         weights/conv2d_161_bias      const s32             
160    conv2d_161_output                 18432/18432     activations/AXIRAM           s8                    
161    conv2d_161_pad_before_output      25088/25088     activations/AXIRAM           s8                    
162    conv2d_161_scratch0               4737/4737       activations/DTCMRAM          s8                    
163    conv2d_161_weights                1152/1152       weights/conv2d_161_weights   const s8              
164    conv2d_162_bias                   128/512         weights/conv2d_162_bias      const s32             
165    conv2d_162_output                 18432/18432     activations/AXIRAM           s8                    
166    conv2d_162_scratch0               1792/1792       activations/DTCMRAM          s8                    
167    conv2d_162_weights                16384/16384     weights/conv2d_162_weights   const s8              
168    conv2d_163_bias                   128/512         weights/conv2d_163_bias      const s32             
169    conv2d_163_output                 18432/18432     activations/AXIRAM           s8                    
170    conv2d_163_pad_before_output      25088/25088     activations/AXIRAM           s8                    
171    conv2d_163_scratch0               4737/4737       activations/DTCMRAM          s8                    
172    conv2d_163_weights                1152/1152       weights/conv2d_163_weights   const s8              
173    conv2d_164_bias                   25/100          weights/conv2d_164_bias      const s32             
174    conv2d_164_output                 3600/3600       activations/AXIRAM           s8                    
175    conv2d_164_scratch0               762/762         activations/DTCMRAM          s8                    
176    conv2d_164_weights                3200/3200       weights/conv2d_164_weights   const s8              
177    conv2d_169_bias                   128/512         weights/conv2d_169_bias      const s32             
178    conv2d_169_output                 18432/18432     activations/AXIRAM           s8                    
179    conv2d_169_pad_before_output      25088/25088     activations/AXIRAM           s8                    
180    conv2d_169_scratch0               4737/4737       activations/DTCMRAM          s8                    
181    conv2d_169_weights                1152/1152       weights/conv2d_169_weights   const s8              
182    conv2d_16_bias                    96/384          weights/conv2d_16_bias       const s32             
183    conv2d_16_output                  55296/55296     activations/AXIRAM           s8                    
184    conv2d_16_scratch0                1024/1024       activations/DTCMRAM          s8                    
185    conv2d_16_weights                 1536/1536       weights/conv2d_16_weights    const s8              
186    conv2d_170_bias                   20/80           weights/conv2d_170_bias      const s32             
187    conv2d_170_output                 2880/2880       activations/AXIRAM           s8                    
188    conv2d_170_scratch0               712/712         activations/DTCMRAM          s8                    
189    conv2d_170_weights                2560/2560       weights/conv2d_170_weights   const s8              
190    conv2d_17_bias                    96/384          weights/conv2d_17_bias       const s32             
191    conv2d_17_output                  55296/55296     activations/AXIRAM           s8                    
192    conv2d_17_pad_before_output       64896/64896     activations/AXIRAM           s8                    
193    conv2d_17_scratch0                3553/3553       activations/DTCMRAM          s8                    
194    conv2d_17_weights                 864/864         weights/conv2d_17_weights    const s8              
195    conv2d_182_bias                   128/512         weights/conv2d_182_bias      const s32             
196    conv2d_182_output                 73728/73728     activations/AXIRAM           s8                    
197    conv2d_182_scratch0               1344/1344       activations/DTCMRAM          s8                    
198    conv2d_182_weights                2048/2048       weights/conv2d_182_weights   const s8              
199    conv2d_184_bias                   128/512         weights/conv2d_184_bias      const s32             
200    conv2d_184_output                 73728/73728     activations/AXIRAM           s8                    
201    conv2d_184_pad_before_output      86528/86528     activations/AXIRAM           s8                    
202    conv2d_184_scratch0               4737/4737       activations/DTCMRAM          s8                    
203    conv2d_184_weights                1152/1152       weights/conv2d_184_weights   const s8              
204    conv2d_185_bias                   128/512         weights/conv2d_185_bias      const s32             
205    conv2d_185_output                 73728/73728     activations/AXIRAM           s8                    
206    conv2d_185_scratch0               1792/1792       activations/DTCMRAM          s8                    
207    conv2d_185_weights                16384/16384     weights/conv2d_185_weights   const s8              
208    conv2d_186_bias                   128/512         weights/conv2d_186_bias      const s32             
209    conv2d_186_output                 73728/73728     activations/AXIRAM           s8                    
210    conv2d_186_pad_before_output      86528/86528     activations/AXIRAM           s8                    
211    conv2d_186_scratch0               4737/4737       activations/DTCMRAM          s8                    
212    conv2d_186_weights                1152/1152       weights/conv2d_186_weights   const s8              
213    conv2d_187_bias                   128/512         weights/conv2d_187_bias      const s32             
214    conv2d_187_output                 73728/73728     activations/AXIRAM           s8                    
215    conv2d_187_scratch0               1792/1792       activations/DTCMRAM          s8                    
216    conv2d_187_weights                16384/16384     weights/conv2d_187_weights   const s8              
217    conv2d_188_bias                   128/512         weights/conv2d_188_bias      const s32             
218    conv2d_188_output                 73728/73728     activations/AXIRAM           s8                    
219    conv2d_188_pad_before_output      86528/86528     activations/AXIRAM           s8                    
220    conv2d_188_scratch0               4737/4737       activations/DTCMRAM          s8                    
221    conv2d_188_weights                1152/1152       weights/conv2d_188_weights   const s8              
222    conv2d_189_bias                   128/512         weights/conv2d_189_bias      const s32             
223    conv2d_189_output                 73728/73728     activations/AXIRAM           s8                    
224    conv2d_189_scratch0               1792/1792       activations/DTCMRAM          s8                    
225    conv2d_189_weights                16384/16384     weights/conv2d_189_weights   const s8              
226    conv2d_18_bias                    16/64           weights/conv2d_18_bias       const s32             
227    conv2d_18_output                  9216/9216       activations/AXIRAM           s8                    
228    conv2d_18_scratch0                544/544         activations/DTCMRAM          s8                    
229    conv2d_18_weights                 1536/1536       weights/conv2d_18_weights    const s8              
230    conv2d_190_bias                   128/512         weights/conv2d_190_bias      const s32             
231    conv2d_190_output                 73728/73728     activations/AXIRAM           s8                    
232    conv2d_190_pad_before_output      86528/86528     activations/AXIRAM           s8                    
233    conv2d_190_scratch0               4737/4737       activations/DTCMRAM          s8                    
234    conv2d_190_weights                1152/1152       weights/conv2d_190_weights   const s8              
235    conv2d_191_bias                   128/512         weights/conv2d_191_bias      const s32             
236    conv2d_191_output                 73728/73728     activations/AXIRAM           s8                    
237    conv2d_191_scratch0               1792/1792       activations/DTCMRAM          s8                    
238    conv2d_191_weights                16384/16384     weights/conv2d_191_weights   const s8              
239    conv2d_192_bias                   128/512         weights/conv2d_192_bias      const s32             
240    conv2d_192_output                 73728/73728     activations/AXIRAM           s8                    
241    conv2d_192_pad_before_output      86528/86528     activations/AXIRAM           s8                    
242    conv2d_192_scratch0               4737/4737       activations/DTCMRAM          s8                    
243    conv2d_192_weights                1152/1152       weights/conv2d_192_weights   const s8              
244    conv2d_193_bias                   128/512         weights/conv2d_193_bias      const s32             
245    conv2d_193_output                 73728/73728     activations/AXIRAM           s8                    
246    conv2d_193_scratch0               1792/1792       activations/DTCMRAM          s8                    
247    conv2d_193_weights                16384/16384     weights/conv2d_193_weights   const s8              
248    conv2d_194_bias                   128/512         weights/conv2d_194_bias      const s32             
249    conv2d_194_output                 73728/73728     activations/AXIRAM           s8                    
250    conv2d_194_pad_before_output      86528/86528     activations/AXIRAM           s8                    
251    conv2d_194_scratch0               4737/4737       activations/DTCMRAM          s8                    
252    conv2d_194_weights                1152/1152       weights/conv2d_194_weights   const s8              
253    conv2d_195_bias                   25/100          weights/conv2d_195_bias      const s32             
254    conv2d_195_output                 14400/14400     activations/AXIRAM           s8                    
255    conv2d_195_scratch0               762/762         activations/DTCMRAM          s8                    
256    conv2d_195_weights                3200/3200       weights/conv2d_195_weights   const s8              
257    conv2d_1_bias                     16/64           weights/conv2d_1_bias        const s32             
258    conv2d_1_output                   147456/147456   activations/AXIRAM           s8                    
259    conv2d_1_scratch0                 1196/1196       activations/DTCMRAM          s8                    
260    conv2d_1_weights                  432/432         weights/conv2d_1_weights     const s8              
261    conv2d_203_bias                   128/512         weights/conv2d_203_bias      const s32             
262    conv2d_203_output                 73728/73728     activations/AXIRAM           s8                    
263    conv2d_203_pad_before_output      86528/86528     activations/AXIRAM           s8                    
264    conv2d_203_scratch0               4737/4737       activations/DTCMRAM          s8                    
265    conv2d_203_weights                1152/1152       weights/conv2d_203_weights   const s8              
266    conv2d_204_bias                   20/80           weights/conv2d_204_bias      const s32             
267    conv2d_204_output                 11520/11520     activations/AXIRAM           s8                    
268    conv2d_204_scratch0               712/712         activations/DTCMRAM          s8                    
269    conv2d_204_weights                2560/2560       weights/conv2d_204_weights   const s8              
270    conv2d_20_bias                    96/384          weights/conv2d_20_bias       const s32             
271    conv2d_20_output                  55296/55296     activations/AXIRAM           s8                    
272    conv2d_20_scratch0                1024/1024       activations/DTCMRAM          s8                    
273    conv2d_20_weights                 1536/1536       weights/conv2d_20_weights    const s8              
274    conv2d_21_bias                    96/384          weights/conv2d_21_bias       const s32             
275    conv2d_21_output                  55296/55296     activations/AXIRAM           s8                    
276    conv2d_21_pad_before_output       64896/64896     activations/AXIRAM           s8                    
277    conv2d_21_scratch0                3553/3553       activations/DTCMRAM          s8                    
278    conv2d_21_weights                 864/864         weights/conv2d_21_weights    const s8              
279    conv2d_22_bias                    16/64           weights/conv2d_22_bias       const s32             
280    conv2d_22_output                  9216/9216       activations/AXIRAM           s8                    
281    conv2d_22_scratch0                544/544         activations/DTCMRAM          s8                    
282    conv2d_22_weights                 1536/1536       weights/conv2d_22_weights    const s8              
283    conv2d_24_bias                    96/384          weights/conv2d_24_bias       const s32             
284    conv2d_24_output                  55296/55296     activations/AXIRAM           s8                    
285    conv2d_24_scratch0                1024/1024       activations/DTCMRAM          s8                    
286    conv2d_24_weights                 1536/1536       weights/conv2d_24_weights    const s8              
287    conv2d_26_bias                    96/384          weights/conv2d_26_bias       const s32             
288    conv2d_26_output                  13824/13824     activations/AXIRAM           s8                    
289    conv2d_26_pad_before_output       60000/60000     activations/AXIRAM           s8                    
290    conv2d_26_scratch0                3553/3553       activations/DTCMRAM          s8                    
291    conv2d_26_weights                 864/864         weights/conv2d_26_weights    const s8              
292    conv2d_27_bias                    24/96           weights/conv2d_27_bias       const s32             
293    conv2d_27_output                  3456/3456       activations/AXIRAM           s8                    
294    conv2d_27_scratch0                624/624         activations/DTCMRAM          s8                    
295    conv2d_27_weights                 2304/2304       weights/conv2d_27_weights    const s8              
296    conv2d_28_bias                    144/576         weights/conv2d_28_bias       const s32             
297    conv2d_28_output                  20736/20736     activations/AXIRAM           s8                    
298    conv2d_28_scratch0                1536/1536       activations/DTCMRAM          s8                    
299    conv2d_28_weights                 3456/3456       weights/conv2d_28_weights    const s8              
300    conv2d_29_bias                    144/576         weights/conv2d_29_bias       const s32             
301    conv2d_29_output                  20736/20736     activations/AXIRAM           s8                    
302    conv2d_29_pad_before_output       28224/28224     activations/AXIRAM           s8                    
303    conv2d_29_scratch0                5329/5329       activations/DTCMRAM          s8                    
304    conv2d_29_weights                 1296/1296       weights/conv2d_29_weights    const s8              
305    conv2d_2_bias                     16/64           weights/conv2d_2_bias        const s32             
306    conv2d_2_output                   147456/147456   activations/AXIRAM           s8                    
307    conv2d_2_pad_before_output        153664/153664   activations/AXIRAM           s8                    
308    conv2d_2_scratch0                 593/593         activations/DTCMRAM          s8                    
309    conv2d_2_weights                  144/144         weights/conv2d_2_weights     const s8              
310    conv2d_30_bias                    24/96           weights/conv2d_30_bias       const s32             
311    conv2d_30_output                  3456/3456       activations/AXIRAM           s8                    
312    conv2d_30_scratch0                816/816         activations/DTCMRAM          s8                    
313    conv2d_30_weights                 3456/3456       weights/conv2d_30_weights    const s8              
314    conv2d_32_bias                    144/576         weights/conv2d_32_bias       const s32             
315    conv2d_32_output                  20736/20736     activations/AXIRAM           s8                    
316    conv2d_32_scratch0                1536/1536       activations/DTCMRAM          s8                    
317    conv2d_32_weights                 3456/3456       weights/conv2d_32_weights    const s8              
318    conv2d_33_bias                    144/576         weights/conv2d_33_bias       const s32             
319    conv2d_33_output                  20736/20736     activations/AXIRAM           s8                    
320    conv2d_33_pad_before_output       28224/28224     activations/AXIRAM           s8                    
321    conv2d_33_scratch0                5329/5329       activations/DTCMRAM          s8                    
322    conv2d_33_weights                 1296/1296       weights/conv2d_33_weights    const s8              
323    conv2d_34_bias                    24/96           weights/conv2d_34_bias       const s32             
324    conv2d_34_output                  3456/3456       activations/AXIRAM           s8                    
325    conv2d_34_scratch0                816/816         activations/DTCMRAM          s8                    
326    conv2d_34_weights                 3456/3456       weights/conv2d_34_weights    const s8              
327    conv2d_36_bias                    144/576         weights/conv2d_36_bias       const s32             
328    conv2d_36_output                  20736/20736     activations/AXIRAM           s8                    
329    conv2d_36_scratch0                1536/1536       activations/DTCMRAM          s8                    
330    conv2d_36_weights                 3456/3456       weights/conv2d_36_weights    const s8              
331    conv2d_37_bias                    144/576         weights/conv2d_37_bias       const s32             
332    conv2d_37_output                  20736/20736     activations/AXIRAM           s8                    
333    conv2d_37_pad_before_output       28224/28224     activations/AXIRAM           s8                    
334    conv2d_37_scratch0                5329/5329       activations/DTCMRAM          s8                    
335    conv2d_37_weights                 1296/1296       weights/conv2d_37_weights    const s8              
336    conv2d_38_bias                    24/96           weights/conv2d_38_bias       const s32             
337    conv2d_38_output                  3456/3456       activations/AXIRAM           s8                    
338    conv2d_38_scratch0                816/816         activations/DTCMRAM          s8                    
339    conv2d_38_weights                 3456/3456       weights/conv2d_38_weights    const s8              
340    conv2d_3_bias                     8/32            weights/conv2d_3_bias        const s32             
341    conv2d_3_output                   73728/73728     activations/AXIRAM           s8                    
342    conv2d_3_scratch0                 144/144         activations/DTCMRAM          s8                    
343    conv2d_3_weights                  128/128         weights/conv2d_3_weights     const s8              
344    conv2d_40_bias                    144/576         weights/conv2d_40_bias       const s32             
345    conv2d_40_output                  20736/20736     activations/AXIRAM           s8                    
346    conv2d_40_scratch0                1536/1536       activations/DTCMRAM          s8                    
347    conv2d_40_weights                 3456/3456       weights/conv2d_40_weights    const s8              
348    conv2d_41_bias                    144/576         weights/conv2d_41_bias       const s32             
349    conv2d_41_output                  20736/20736     activations/AXIRAM           s8                    
350    conv2d_41_pad_before_output       28224/28224     activations/AXIRAM           s8                    
351    conv2d_41_scratch0                5329/5329       activations/DTCMRAM          s8                    
352    conv2d_41_weights                 1296/1296       weights/conv2d_41_weights    const s8              
353    conv2d_42_bias                    32/128          weights/conv2d_42_bias       const s32             
354    conv2d_42_output                  4608/4608       activations/AXIRAM           s8                    
355    conv2d_42_scratch0                896/896         activations/DTCMRAM          s8                    
356    conv2d_42_weights                 4608/4608       weights/conv2d_42_weights    const s8              
357    conv2d_43_bias                    192/768         weights/conv2d_43_bias       const s32             
358    conv2d_43_output                  27648/27648     activations/AXIRAM           s8                    
359    conv2d_43_scratch0                2048/2048       activations/DTCMRAM          s8                    
360    conv2d_43_weights                 6144/6144       weights/conv2d_43_weights    const s8              
361    conv2d_44_bias                    192/768         weights/conv2d_44_bias       const s32             
362    conv2d_44_output                  27648/27648     activations/AXIRAM           s8                    
363    conv2d_44_pad_before_output       37632/37632     activations/AXIRAM           s8                    
364    conv2d_44_scratch0                7105/7105       activations/DTCMRAM          s8                    
365    conv2d_44_weights                 1728/1728       weights/conv2d_44_weights    const s8              
366    conv2d_45_bias                    32/128          weights/conv2d_45_bias       const s32             
367    conv2d_45_output                  4608/4608       activations/AXIRAM           s8                    
368    conv2d_45_scratch0                1088/1088       activations/DTCMRAM          s8                    
369    conv2d_45_weights                 6144/6144       weights/conv2d_45_weights    const s8              
370    conv2d_47_bias                    192/768         weights/conv2d_47_bias       const s32             
371    conv2d_47_output                  27648/27648     activations/AXIRAM           s8                    
372    conv2d_47_scratch0                2048/2048       activations/DTCMRAM          s8                    
373    conv2d_47_weights                 6144/6144       weights/conv2d_47_weights    const s8              
374    conv2d_48_bias                    192/768         weights/conv2d_48_bias       const s32             
375    conv2d_48_output                  27648/27648     activations/AXIRAM           s8                    
376    conv2d_48_pad_before_output       37632/37632     activations/AXIRAM           s8                    
377    conv2d_48_scratch0                7105/7105       activations/DTCMRAM          s8                    
378    conv2d_48_weights                 1728/1728       weights/conv2d_48_weights    const s8              
379    conv2d_49_bias                    32/128          weights/conv2d_49_bias       const s32             
380    conv2d_49_output                  4608/4608       activations/AXIRAM           s8                    
381    conv2d_49_scratch0                1088/1088       activations/DTCMRAM          s8                    
382    conv2d_49_weights                 6144/6144       weights/conv2d_49_weights    const s8              
383    conv2d_4_bias                     48/192          weights/conv2d_4_bias        const s32             
384    conv2d_4_output                   442368/442368   activations/SDRAM            s8                    
385    conv2d_4_scratch0                 512/512         activations/DTCMRAM          s8                    
386    conv2d_4_weights                  384/384         weights/conv2d_4_weights     const s8              
387    conv2d_51_bias                    192/768         weights/conv2d_51_bias       const s32             
388    conv2d_51_output                  27648/27648     activations/AXIRAM           s8                    
389    conv2d_51_scratch0                2048/2048       activations/DTCMRAM          s8                    
390    conv2d_51_weights                 6144/6144       weights/conv2d_51_weights    const s8              
391    conv2d_53_bias                    192/768         weights/conv2d_53_bias       const s32             
392    conv2d_53_output                  6912/6912       activations/AXIRAM           s8                    
393    conv2d_53_pad_before_output       32448/32448     activations/AXIRAM           s8                    
394    conv2d_53_scratch0                7105/7105       activations/DTCMRAM          s8                    
395    conv2d_53_weights                 1728/1728       weights/conv2d_53_weights    const s8              
396    conv2d_54_bias                    56/224          weights/conv2d_54_bias       const s32             
397    conv2d_54_output                  2016/2016       activations/AXIRAM           s8                    
398    conv2d_54_scratch0                1328/1328       activations/DTCMRAM          s8                    
399    conv2d_54_weights                 10752/10752     weights/conv2d_54_weights    const s8              
400    conv2d_55_bias                    336/1344        weights/conv2d_55_bias       const s32             
401    conv2d_55_output                  12096/12096     activations/AXIRAM           s8                    
402    conv2d_55_scratch0                3584/3584       activations/DTCMRAM          s8                    
403    conv2d_55_weights                 18816/18816     weights/conv2d_55_weights    const s8              
404    conv2d_56_bias                    336/1344        weights/conv2d_56_bias       const s32             
405    conv2d_56_output                  12096/12096     activations/AXIRAM           s8                    
406    conv2d_56_pad_before_output       21504/21504     activations/AXIRAM           s8                    
407    conv2d_56_scratch0                12433/12433     activations/DTCMRAM          s8                    
408    conv2d_56_weights                 3024/3024       weights/conv2d_56_weights    const s8              
409    conv2d_57_bias                    56/224          weights/conv2d_57_bias       const s32             
410    conv2d_57_output                  2016/2016       activations/AXIRAM           s8                    
411    conv2d_57_scratch0                1904/1904       activations/DTCMRAM          s8                    
412    conv2d_57_weights                 18816/18816     weights/conv2d_57_weights    const s8              
413    conv2d_59_bias                    336/1344        weights/conv2d_59_bias       const s32             
414    conv2d_59_output                  12096/12096     activations/AXIRAM           s8                    
415    conv2d_59_scratch0                3584/3584       activations/DTCMRAM          s8                    
416    conv2d_59_weights                 18816/18816     weights/conv2d_59_weights    const s8              
417    conv2d_60_bias                    336/1344        weights/conv2d_60_bias       const s32             
418    conv2d_60_output                  12096/12096     activations/AXIRAM           s8                    
419    conv2d_60_pad_before_output       21504/21504     activations/AXIRAM           s8                    
420    conv2d_60_scratch0                12433/12433     activations/DTCMRAM          s8                    
421    conv2d_60_weights                 3024/3024       weights/conv2d_60_weights    const s8              
422    conv2d_61_bias                    56/224          weights/conv2d_61_bias       const s32             
423    conv2d_61_output                  2016/2016       activations/AXIRAM           s8                    
424    conv2d_61_scratch0                1904/1904       activations/DTCMRAM          s8                    
425    conv2d_61_weights                 18816/18816     weights/conv2d_61_weights    const s8              
426    conv2d_63_bias                    336/1344        weights/conv2d_63_bias       const s32             
427    conv2d_63_output                  12096/12096     activations/AXIRAM           s8                    
…
------ ----------------------- ----- --------------- --------- -------- ------------------------------------ -------------------------- 
171    conv2d_185              185   Conv2D          9437312   16896    I: conv2d_184_output                 int8(1x24x24x128) (200)    
                                                                        S: conv2d_185_scratch0                                          
                                                                        W: conv2d_185_weights                int8(128x1x1x128) (207)    
                                                                        W: conv2d_185_bias                   int32(128) (204)           
                                                                        O: conv2d_185_output                 int8(1x24x24x128) (205)    
------ ----------------------- ----- --------------- --------- -------- ------------------------------------ -------------------------- 
172    conv2d_186_pad_before   186   Pad             0         0        I: conv2d_185_output                 int8(1x24x24x128) (205)    
                                                                        O: conv2d_186_pad_before_output      int8(1x26x26x128) (210)    
------ ----------------------- ----- --------------- --------- -------- ------------------------------------ -------------------------- 
173    conv2d_186              186   Conv2D          663680    1664     I: conv2d_186_pad_before_output      int8(1x26x26x128) (210)    
                                                                        S: conv2d_186_scratch0                                          
                                                                        W: conv2d_186_weights                int8(1x3x3x128) (212)      
                                                                        W: conv2d_186_bias                   int32(128) (208)           
                                                                        O: conv2d_186_output                 int8(1x24x24x128) (209)    
------ ----------------------- ----- --------------- --------- -------- ------------------------------------ -------------------------- 
174    conv2d_187              187   Conv2D          9437312   16896    I: conv2d_186_output                 int8(1x24x24x128) (209)    
                                                                        S: conv2d_187_scratch0                                          
                                                                        W: conv2d_187_weights                int8(128x1x1x128) (216)    
                                                                        W: conv2d_187_bias                   int32(128) (213)           
                                                                        O: conv2d_187_output                 int8(1x24x24x128) (214)    
------ ----------------------- ----- --------------- --------- -------- ------------------------------------ -------------------------- 
175    conv2d_188_pad_before   188   Pad             0         0        I: conv2d_187_output                 int8(1x24x24x128) (214)    
                                                                        O: conv2d_188_pad_before_output      int8(1x26x26x128) (219)    
------ ----------------------- ----- --------------- --------- -------- ------------------------------------ -------------------------- 
176    conv2d_188              188   Conv2D          663680    1664     I: conv2d_188_pad_before_output      int8(1x26x26x128) (219)    
                                                                        S: conv2d_188_scratch0                                          
                                                                        W: conv2d_188_weights                int8(1x3x3x128) (221)      
                                                                        W: conv2d_188_bias                   int32(128) (217)           
                                                                        O: conv2d_188_output                 int8(1x24x24x128) (218)    
------ ----------------------- ----- --------------- --------- -------- ------------------------------------ -------------------------- 
177    conv2d_189              189   Conv2D          9437312   16896    I: conv2d_188_output                 int8(1x24x24x128) (218)    
                                                                        S: conv2d_189_scratch0                                          
                                                                        W: conv2d_189_weights                int8(128x1x1x128) (225)    
                                                                        W: conv2d_189_bias                   int32(128) (222)           
                                                                        O: conv2d_189_output                 int8(1x24x24x128) (223)    
------ ----------------------- ----- --------------- --------- -------- ------------------------------------ -------------------------- 
178    conv2d_190_pad_before   190   Pad             0         0        I: conv2d_189_output                 int8(1x24x24x128) (223)    
                                                                        O: conv2d_190_pad_before_output      int8(1x26x26x128) (232)    
------ ----------------------- ----- --------------- --------- -------- ------------------------------------ -------------------------- 
179    conv2d_190              190   Conv2D          663680    1664     I: conv2d_190_pad_before_output      int8(1x26x26x128) (232)    
                                                                        S: conv2d_190_scratch0                                          
                                                                        W: conv2d_190_weights                int8(1x3x3x128) (234)      
                                                                        W: conv2d_190_bias                   int32(128) (230)           
                                                                        O: conv2d_190_output                 int8(1x24x24x128) (231)    
------ ----------------------- ----- --------------- --------- -------- ------------------------------------ -------------------------- 
180    conv2d_191              191   Conv2D          9437312   16896    I: conv2d_190_output                 int8(1x24x24x128) (231)    
                                                                        S: conv2d_191_scratch0                                          
                                                                        W: conv2d_191_weights                int8(128x1x1x128) (238)    
                                                                        W: conv2d_191_bias                   int32(128) (235)           
                                                                        O: conv2d_191_output                 int8(1x24x24x128) (236)    
------ ----------------------- ----- --------------- --------- -------- ------------------------------------ -------------------------- 
181    conv2d_192_pad_before   192   Pad             0         0        I: conv2d_191_output                 int8(1x24x24x128) (236)    
                                                                        O: conv2d_192_pad_before_output      int8(1x26x26x128) (241)    
------ ----------------------- ----- --------------- --------- -------- ------------------------------------ -------------------------- 
182    conv2d_192              192   Conv2D          663680    1664     I: conv2d_192_pad_before_output      int8(1x26x26x128) (241)    
                                                                        S: conv2d_192_scratch0                                          
                                                                        W: conv2d_192_weights                int8(1x3x3x128) (243)      
                                                                        W: conv2d_192_bias                   int32(128) (239)           
                                                                        O: conv2d_192_output                 int8(1x24x24x128) (240)    
------ ----------------------- ----- --------------- --------- -------- ------------------------------------ -------------------------- 
183    conv2d_193              193   Conv2D          9437312   16896    I: conv2d_192_output                 int8(1x24x24x128) (240)    
                                                                        S: conv2d_193_scratch0                                          
                                                                        W: conv2d_193_weights                int8(128x1x1x128) (247)    
                                                                        W: conv2d_193_bias                   int32(128) (244)           
                                                                        O: conv2d_193_output                 int8(1x24x24x128) (245)    
------ ----------------------- ----- --------------- --------- -------- ------------------------------------ -------------------------- 
184    conv2d_194_pad_before   194   Pad             0         0        I: conv2d_193_output                 int8(1x24x24x128) (245)    
                                                                        O: conv2d_194_pad_before_output      int8(1x26x26x128) (250)    
------ ----------------------- ----- --------------- --------- -------- ------------------------------------ -------------------------- 
185    conv2d_194              194   Conv2D          663680    1664     I: conv2d_194_pad_before_output      int8(1x26x26x128) (250)    
                                                                        S: conv2d_194_scratch0                                          
                                                                        W: conv2d_194_weights                int8(1x3x3x128) (252)      
                                                                        W: conv2d_194_bias                   int32(128) (248)           
                                                                        O: conv2d_194_output                 int8(1x24x24x128) (249)    
------ ----------------------- ----- --------------- --------- -------- ------------------------------------ -------------------------- 
186    conv2d_195              195   Conv2D          1843225   3300     I: conv2d_194_output                 int8(1x24x24x128) (249)    
                                                                        S: conv2d_195_scratch0                                          
                                                                        W: conv2d_195_weights                int8(25x1x1x128) (256)     
                                                                        W: conv2d_195_bias                   int32(25) (253)            
                                                                        O: conv2d_195_output                 int8(1x24x24x25) (254)     
------ ----------------------- ----- --------------- --------- -------- ------------------------------------ -------------------------- 
187    concat_200              200   Concat          0         0        I: conv2d_195_output                 int8(1x24x24x25) (254)     
                                                                        I: conv2d_164_output                 int8(1x24x24x25) (254)     
                                                                        I: conv2d_77_output                  int8(1x24x24x25) (254)     
                                                                        I: conv2d_105_output                 int8(1x24x24x25) (254)     
                                                                        I: conv2d_133_output                 int8(1x24x24x25) (254)     
                                                                        O: concat_200_output                 int8(1x3845x5) (0)         
------ ----------------------- ----- --------------- --------- -------- ------------------------------------ -------------------------- 
188    nl_201                  201   Nonlinearity    288375    0        I: concat_200_output                 int8(1x3845x5) (0)         
                                                                        S: nl_201_scratch0                                              
                                                                        O: nl_201_output                     int8(1x3845x5) (562)       
------ ----------------------- ----- --------------- --------- -------- ------------------------------------ -------------------------- 
189    conversion_202          202   Conversion      38450     0        I: nl_201_output                     int8(1x3845x5) (562)       
                                                                        O: conversion_202_output             f32(1x3845x5) (547)        
------ ----------------------- ----- --------------- --------- -------- ------------------------------------ -------------------------- 
190    conv2d_203_pad_before   203   Pad             0         0        I: conv2d_193_output                 int8(1x24x24x128) (245)    
                                                                        O: conv2d_203_pad_before_output      int8(1x26x26x128) (263)    
------ ----------------------- ----- --------------- --------- -------- ------------------------------------ -------------------------- 
191    conv2d_203              203   Conv2D          663680    1664     I: conv2d_203_pad_before_output      int8(1x26x26x128) (263)    
                                                                        S: conv2d_203_scratch0                                          
                                                                        W: conv2d_203_weights                int8(1x3x3x128) (265)      
                                                                        W: conv2d_203_bias                   int32(128) (261)           
                                                                        O: conv2d_203_output                 int8(1x24x24x128) (262)    
------ ----------------------- ----- --------------- --------- -------- ------------------------------------ -------------------------- 
192    conv2d_204              204   Conv2D          1474580   2640     I: conv2d_203_output                 int8(1x24x24x128) (262)    
                                                                        S: conv2d_204_scratch0                                          
                                                                        W: conv2d_204_weights                int8(20x1x1x128) (269)     
                                                                        W: conv2d_204_bias                   int32(20) (266)            
                                                                        O: conv2d_204_output                 int8(1x24x24x20) (267)     
------ ----------------------- ----- --------------- --------- -------- ------------------------------------ -------------------------- 
193    concat_209              209   Concat          0         0        I: conv2d_204_output                 int8(1x24x24x20) (267)     
                                                                        I: conv2d_170_output                 int8(1x24x24x20) (267)     
                                                                        I: conv2d_83_output                  int8(1x24x24x20) (267)     
                                                                        I: conv2d_111_output                 int8(1x24x24x20) (267)     
                                                                        I: conv2d_139_output                 int8(1x24x24x20) (267)     
                                                                        O: concat_209_output                 int8(1x3845x4) (1)         
------ ----------------------- ----- --------------- --------- -------- ------------------------------------ -------------------------- 
194    conversion_210          210   Conversion      30760     0        I: concat_209_output                 int8(1x3845x4) (1)         
                                                                        O: conversion_210_output             f32(1x3845x4) (548)        
------ ----------------------- ----- --------------- --------- -------- ------------------------------------ -------------------------- 



Number of operations per c-layer
------- ------ ----------------------------- ------------- ------------- 
c_id    m_id   name (type)                             #op          type 
------- ------ ----------------------------- ------------- ------------- 
0       218    conversion_218 (Conversion)          30,760    smul_s8_s8 
1       0      conversion_0 (Conversion)           221,184    smul_u8_s8 
2       1      conv2d_1 (Conv2D)                 3,981,328    smul_s8_s8 
3       2      conv2d_2_pad_before (Pad)                 0    smul_s8_s8 
4       2      conv2d_2 (Conv2D)                 1,327,120    smul_s8_s8 
5       3      conv2d_3 (Conv2D)                 1,179,656    smul_s8_s8 
6       4      conv2d_4 (Conv2D)                 3,538,992    smul_s8_s8 
7       5      conv2d_6_pad_before (Pad)                 0    smul_s8_s8 
8       6      conv2d_6 (Conv2D)                   995,376    smul_s8_s8 
9       7      conv2d_7 (Conv2D)                   884,744    smul_s8_s8 
10      8      conv2d_8 (Conv2D)                   884,784    smul_s8_s8 
11      9      conv2d_9_pad_before (Pad)                 0    smul_s8_s8 
12      9      conv2d_9 (Conv2D)                   995,376    smul_s8_s8 
13      10     conv2d_10 (Conv2D)                  884,744    smul_s8_s8 
14      11     eltwise_11 (Eltwise/add)             18,432      op_s8_s8 
15      12     conv2d_12 (Conv2D)                  884,784    smul_s8_s8 
16      13     conv2d_14_pad_before (Pad)                0    smul_s8_s8 
17      14     conv2d_14 (Conv2D)                  248,880    smul_s8_s8 
18      15     conv2d_15 (Conv2D)                  442,384    smul_s8_s8 
19      16     conv2d_16 (Conv2D)                  884,832    smul_s8_s8 
20      17     conv2d_17_pad_before (Pad)                0    smul_s8_s8 
21      17     conv2d_17 (Conv2D)                  497,760    smul_s8_s8 
22      18     conv2d_18 (Conv2D)                  884,752    smul_s8_s8 
23      19     eltwise_19 (Eltwise/add)              9,216      op_s8_s8 
24      20     conv2d_20 (Conv2D)                  884,832    smul_s8_s8 
25      21     conv2d_21_pad_before (Pad)                0    smul_s8_s8 
26      21     conv2d_21 (Conv2D)                  497,760    smul_s8_s8 
27      22     conv2d_22 (Conv2D)                  884,752    smul_s8_s8 
28      23     eltwise_23 (Eltwise/add)              9,216      op_s8_s8 
29      182    conv2d_182 (Conv2D)               1,179,776    smul_s8_s8 
30      24     conv2d_24 (Conv2D)                  884,832    smul_s8_s8 
31      25     conv2d_26_pad_before (Pad)                0    smul_s8_s8 
32      26     conv2d_26 (Conv2D)                  124,512    smul_s8_s8 
33      27     conv2d_27 (Conv2D)                  331,800    smul_s8_s8 
34      28     conv2d_28 (Conv2D)                  497,808    smul_s8_s8 
35      29     conv2d_29_pad_before (Pad)                0    smul_s8_s8 
36      29     conv2d_29 (Conv2D)                  186,768    smul_s8_s8 
37      30     conv2d_30 (Conv2D)                  497,688    smul_s8_s8 
38      31     eltwise_31 (Eltwise/add)              3,456      op_s8_s8 
39      32     conv2d_32 (Conv2D)                  497,808    smul_s8_s8 
40      33     conv2d_33_pad_before (Pad)                0    smul_s8_s8 
41      33     conv2d_33 (Conv2D)                  186,768    smul_s8_s8 
42      34     conv2d_34 (Conv2D)                  497,688    smul_s8_s8 
43      35     eltwise_35 (Eltwise/add)              3,456      op_s8_s8 
44      36     conv2d_36 (Conv2D)                  497,808    smul_s8_s8 
45      37     conv2d_37_pad_before (Pad)                0    smul_s8_s8 
46      37     conv2d_37 (Conv2D)                  186,768    smul_s8_s8 
47      38     conv2d_38 (Conv2D)                  497,688    smul_s8_s8 
48      39     eltwise_39 (Eltwise/add)              3,456      op_s8_s8 
49      40     conv2d_40 (Conv2D)                  497,808    smul_s8_s8 
50      41     conv2d_41_pad_before (Pad)                0    smul_s8_s8 
51      41     conv2d_41 (Conv2D)                  186,768    smul_s8_s8 
52      42     conv2d_42 (Conv2D)                  663,584    smul_s8_s8 
53      43     conv2d_43 (Conv2D)                  884,928    smul_s8_s8 
54      44     conv2d_44_pad_before (Pad)                0    smul_s8_s8 
55      44     conv2d_44 (Conv2D)                  249,024    smul_s8_s8 
56      45     conv2d_45 (Conv2D)                  884,768    smul_s8_s8 
57      46     eltwise_46 (Eltwise/add)              4,608      op_s8_s8 
58      47     conv2d_47 (Conv2D)                  884,928    smul_s8_s8 
59      48     conv2d_48_pad_before (Pad)                0    smul_s8_s8 
60      48     conv2d_48 (Conv2D)                  249,024    smul_s8_s8 
61      49     conv2d_49 (Conv2D)                  884,768    smul_s8_s8 
62      50     eltwise_50 (Eltwise/add)              4,608      op_s8_s8 
63      151    conv2d_151 (Conv2D)                 589,952    smul_s8_s8 
64      51     conv2d_51 (Conv2D)                  884,928    smul_s8_s8 
65      52     conv2d_53_pad_before (Pad)                0    smul_s8_s8 
66      53     conv2d_53 (Conv2D)                   62,400    smul_s8_s8 
67      54     conv2d_54 (Conv2D)                  387,128    smul_s8_s8 
68      55     conv2d_55 (Conv2D)                  677,712    smul_s8_s8 
69      56     conv2d_56_pad_before (Pad)                0    smul_s8_s8 
70      56     conv2d_56 (Conv2D)                  109,200    smul_s8_s8 
71      57     conv2d_57 (Conv2D)                  677,432    smul_s8_s8 
72      58     eltwise_58 (Eltwise/add)              2,016      op_s8_s8 
73      59     conv2d_59 (Conv2D)                  677,712    smul_s8_s8 
74      60     conv2d_60_pad_before (Pad)                0    smul_s8_s8 
75      60     conv2d_60 (Conv2D)                  109,200    smul_s8_s8 
76      61     conv2d_61 (Conv2D)                  677,432    smul_s8_s8 
77      62     eltwise_62 (Eltwise/add)              2,016      op_s8_s8 
78      63     conv2d_63 (Conv2D)                  677,712    smul_s8_s8 
79      64     conv2d_64_pad_before (Pad)                0    smul_s8_s8 
80      64     conv2d_64 (Conv2D)                  109,200    smul_s8_s8 
81      65     conv2d_65 (Conv2D)                1,354,864    smul_s8_s8 
82      66     conv2d_66 (Conv2D)                5,162,240    smul_s8_s8 
83      67     conv2d_67 (Conv2D)                5,898,368    smul_s8_s8 
84      68     conv2d_68_pad_before (Pad)                0    smul_s8_s8 
85      68     conv2d_68 (Conv2D)                   41,600    smul_s8_s8 
86      69     conv2d_69 (Conv2D)                  589,952    smul_s8_s8 
87      70     conv2d_70_pad_before (Pad)                0    smul_s8_s8 
88      70     conv2d_70 (Conv2D)                   41,600    smul_s8_s8 
89      71     conv2d_71 (Conv2D)                  589,952    smul_s8_s8 
90      72     conv2d_72_pad_before (Pad)                0    smul_s8_s8 
91      72     conv2d_72 (Conv2D)                   41,600    smul_s8_s8 
92      73     conv2d_73 (Conv2D)                  589,952    smul_s8_s8 
93      74     conv2d_74_pad_before (Pad)                0    smul_s8_s8 
94      74     conv2d_74 (Conv2D)                   41,600    smul_s8_s8 
95      75     conv2d_75 (Conv2D)                  589,952    smul_s8_s8 
96      76     conv2d_76_pad_before (Pad)                0    smul_s8_s8 
97      76     conv2d_76 (Conv2D)                   41,600    smul_s8_s8 
98      77     conv2d_77 (Conv2D)                  115,225    smul_s8_s8 
99      82     conv2d_82_pad_before (Pad)                0    smul_s8_s8 
100     82     conv2d_82 (Conv2D)                   41,600    smul_s8_s8 
101     83     conv2d_83 (Conv2D)                   92,180    smul_s8_s8 
102     94     conv2d_94_pad_before (Pad)                0    smul_s8_s8 
103     94     conv2d_94 (Conv2D)                   10,496    smul_s8_s8 
104     95     conv2d_95 (Conv2D)                  147,584    smul_s8_s8 
105     96     conv2d_96_pad_before (Pad)                0    smul_s8_s8 
106     96     conv2d_96 (Conv2D)                   10,496    smul_s8_s8 
107     97     conv2d_97 (Conv2D)                  147,584    smul_s8_s8 
108     98     conv2d_98_pad_before (Pad)                0    smul_s8_s8 
109     98     conv2d_98 (Conv2D)                   10,496    smul_s8_s8 
110     99     conv2d_99 (Conv2D)                  147,584    smul_s8_s8 
111     100    conv2d_100_pad_before (Pad)               0    smul_s8_s8 
112     100    conv2d_100 (Conv2D)                  10,496    smul_s8_s8 
113     101    conv2d_101 (Conv2D)                 147,584    smul_s8_s8 
114     102    conv2d_102_pad_before (Pad)               0    smul_s8_s8 
115     102    conv2d_102 (Conv2D)                  10,496    smul_s8_s8 
116     103    conv2d_103 (Conv2D)                 147,584    smul_s8_s8 
117     104    conv2d_104_pad_before (Pad)               0    smul_s8_s8 
118     104    conv2d_104 (Conv2D)                  10,496    smul_s8_s8 
119     105    conv2d_105 (Conv2D)                  28,825    smul_s8_s8 
120     110    conv2d_110_pad_before (Pad)               0    smul_s8_s8 
121     110    conv2d_110 (Conv2D)                  10,496    smul_s8_s8 
122     111    conv2d_111 (Conv2D)                  23,060    smul_s8_s8 
123     122    conv2d_122_pad_before (Pad)               0    smul_s8_s8 
124     122    conv2d_122 (Conv2D)                   4,736    smul_s8_s8 
125     123    conv2d_123 (Conv2D)                  64,638    smul_s8_s8 
126     124    conv2d_124_pad_before (Pad)               0    smul_s8_s8 
127     124    conv2d_124 (Conv2D)                   4,218    smul_s8_s8 
128     125    conv2d_125 (Conv2D)                  57,582    smul_s8_s8 
129     126    conv2d_126_pad_before (Pad)               0    smul_s8_s8 
130     126    conv2d_126 (Conv2D)                   3,848    smul_s8_s8 
131     127    conv2d_127 (Conv2D)                  53,376    smul_s8_s8 
132     128    conv2d_128_pad_before (Pad)               0    smul_s8_s8 
133     128    conv2d_128 (Conv2D)                   4,736    smul_s8_s8 
134     129    conv2d_129 (Conv2D)                  65,664    smul_s8_s8 
135     130    conv2d_130_pad_before (Pad)               0    smul_s8_s8 
136     130    conv2d_130 (Conv2D)                   4,736    smul_s8_s8 
137     131    conv2d_131 (Conv2D)                  65,664    smul_s8_s8 
138     132    conv2d_132_pad_before (Pad)               0    smul_s8_s8 
139     132    conv2d_132 (Conv2D)                   4,736    smul_s8_s8 
140     133    conv2d_133 (Conv2D)                  12,825    smul_s8_s8 
141     138    conv2d_138_pad_before (Pad)               0    smul_s8_s8 
142     138    conv2d_138 (Conv2D)                   4,736    smul_s8_s8 
143     139    conv2d_139 (Conv2D)                  10,260    smul_s8_s8 
144     150    upsample_150 (Upsample)              73,728    smul_s8_s8 
145     152    eltwise_152 (Eltwise/add)            18,432      op_s8_s8 
146     153    conv2d_153_pad_before (Pad)               0    smul_s8_s8 
147     153    conv2d_153 (Conv2D)                 166,016    smul_s8_s8 
148     154    conv2d_154 (Conv2D)               2,359,424    smul_s8_s8 
149     155    conv2d_155_pad_before (Pad)               0    smul_s8_s8 
150     155    conv2d_155 (Conv2D)                 166,016    smul_s8_s8 
151     156    conv2d_156 (Conv2D)               2,359,424    smul_s8_s8 
152     157    conv2d_157_pad_before (Pad)               0    smul_s8_s8 
153     157    conv2d_157 (Conv2D)                 166,016    smul_s8_s8 
154     158    conv2d_158 (Conv2D)               2,359,424    smul_s8_s8 
155     159    conv2d_159_pad_before (Pad)               0    smul_s8_s8 
156     159    conv2d_159 (Conv2D)                 166,016    smul_s8_s8 
157     160    conv2d_160 (Conv2D)               2,359,424    smul_s8_s8 
158     161    conv2d_161_pad_before (Pad)               0    smul_s8_s8 
159     161    conv2d_161 (Conv2D)                 166,016    smul_s8_s8 
160     162    conv2d_162 (Conv2D)               2,359,424    smul_s8_s8 
161     163    conv2d_163_pad_before (Pad)               0    smul_s8_s8 
162     163    conv2d_163 (Conv2D)                 166,016    smul_s8_s8 
163     164    conv2d_164 (Conv2D)                 460,825    smul_s8_s8 
164     169    conv2d_169_pad_before (Pad)               0    smul_s8_s8 
165     169    conv2d_169 (Conv2D)                 166,016    smul_s8_s8 
166     170    conv2d_170 (Conv2D)                 368,660    smul_s8_s8 
167     181    upsample_181 (Upsample)             294,912    smul_s8_s8 
168     183    eltwise_183 (Eltwise/add)            73,728      op_s8_s8 
169     184    conv2d_184_pad_before (Pad)               0    smul_s8_s8 
170     184    conv2d_184 (Conv2D)                 663,680    smul_s8_s8 
171     185    conv2d_185 (Conv2D)               9,437,312    smul_s8_s8 
172     186    conv2d_186_pad_before (Pad)               0    smul_s8_s8 
173     186    conv2d_186 (Conv2D)                 663,680    smul_s8_s8 
174     187    conv2d_187 (Conv2D)               9,437,312    smul_s8_s8 
175     188    conv2d_188_pad_before (Pad)               0    smul_s8_s8 
176     188    conv2d_188 (Conv2D)                 663,680    smul_s8_s8 
177     189    conv2d_189 (Conv2D)               9,437,312    smul_s8_s8 
178     190    conv2d_190_pad_before (Pad)               0    smul_s8_s8 
179     190    conv2d_190 (Conv2D)                 663,680    smul_s8_s8 
180     191    conv2d_191 (Conv2D)               9,437,312    smul_s8_s8 
181     192    conv2d_192_pad_before (Pad)               0    smul_s8_s8 
182     192    conv2d_192 (Conv2D)                 663,680    smul_s8_s8 
183     193    conv2d_193 (Conv2D)               9,437,312    smul_s8_s8 
184     194    conv2d_194_pad_before (Pad)               0    smul_s8_s8 
185     194    conv2d_194 (Conv2D)                 663,680    smul_s8_s8 
186     195    conv2d_195 (Conv2D)               1,843,225    smul_s8_s8 
187     200    concat_200 (Concat)                       0    smul_s8_s8 
188     201    nl_201 (Nonlinearity)               288,375      op_s8_s8 
189     202    conversion_202 (Conversion)          38,450   smul_s8_f32 
190     203    conv2d_203_pad_before (Pad)               0    smul_s8_s8 
191     203    conv2d_203 (Conv2D)                 663,680    smul_s8_s8 
192     204    conv2d_204 (Conv2D)               1,474,580    smul_s8_s8 
193     209    concat_209 (Concat)                       0    smul_s8_s8 
194     210    conversion_210 (Conversion)          30,760   smul_s8_f32 
------- ------ ----------------------------- ------------- ------------- 
total                                          124,403,144 

Number of operation types
---------------- ------------- ----------- 
operation type               #           % 
---------------- ------------- ----------- 
smul_s8_s8         123,671,735       99.4% 
smul_u8_s8             221,184        0.2% 
op_s8_s8               441,015        0.4% 
smul_s8_f32             69,210        0.1% 

Complexity report (model)
------ -------------------------- ------------------------- ------------------------- ------------ 
m_id   name                       c_macc                    c_rom                     c_id         
------ -------------------------- ------------------------- ------------------------- ------------ 
0      serving_default_input_10   |                  0.2%   |                  0.0%   [1]          
1      conv2d_1                   |||||||            3.2%   |                  0.0%   [2]          
2      conv2d_2                   |||                1.1%   |                  0.0%   [3, 4]       
3      conv2d_3                   ||                 0.9%   |                  0.0%   [5]          
4      conv2d_4                   ||||||             2.8%   |                  0.1%   [6]          
5      pad_5                      |                  0.0%   |                  0.0%   [7]          
6      conv2d_6                   ||                 0.8%   |                  0.1%   [8]          
7      conv2d_7                   ||                 0.7%   |                  0.0%   [9]          
8      conv2d_8                   ||                 0.7%   |                  0.1%   [10]         
9      conv2d_9                   ||                 0.8%   |                  0.1%   [11, 12]     
10     conv2d_10                  ||                 0.7%   |                  0.0%   [13]         
11     eltwise_11                 |                  0.0%   |                  0.0%   [14]         
12     conv2d_12                  ||                 0.7%   |                  0.1%   [15]         
13     pad_13                     |                  0.0%   |                  0.0%   [16]         
14     conv2d_14                  |                  0.2%   |                  0.1%   [17]         
15     conv2d_15                  |                  0.4%   |                  0.1%   [18]         
16     conv2d_16                  ||                 0.7%   |                  0.2%   [19]         
17     conv2d_17                  |                  0.4%   |                  0.1%   [20, 21]     
18     conv2d_18                  ||                 0.7%   |                  0.1%   [22]         
19     eltwise_19                 |                  0.0%   |                  0.0%   [23]         
20     conv2d_20                  ||                 0.7%   |                  0.2%   [24]         
21     conv2d_21                  |                  0.4%   |                  0.1%   [25, 26]     
22     conv2d_22                  ||                 0.7%   |                  0.1%   [27]         
23     eltwise_23                 |                  0.0%   |                  0.0%   [28]         
24     conv2d_24                  ||                 0.7%   |                  0.2%   [30]         
25     pad_25                     |                  0.0%   |                  0.0%   [31]         
26     conv2d_26                  |                  0.1%   |                  0.1%   [32]         
27     conv2d_27                  |                  0.3%   |                  0.2%   [33]         
28     conv2d_28                  |                  0.4%   |                  0.4%   [34]         
29     conv2d_29                  |                  0.2%   |                  0.2%   [35, 36]     
30     conv2d_30                  |                  0.4%   |                  0.3%   [37]         
31     eltwise_31                 |                  0.0%   |                  0.0%   [38]         
32     conv2d_32                  |                  0.4%   |                  0.4%   [39]         
33     conv2d_33                  |                  0.2%   |                  0.2%   [40, 41]     
34     conv2d_34                  |                  0.4%   |                  0.3%   [42]         
35     eltwise_35                 |                  0.0%   |                  0.0%   [43]         
36     conv2d_36                  |                  0.4%   |                  0.4%   [44]         
37     conv2d_37                  |                  0.2%   |                  0.2%   [45, 46]     
38     conv2d_38                  |                  0.4%   |                  0.3%   [47]         
39     eltwise_39                 |                  0.0%   |                  0.0%   [48]         
40     conv2d_40                  |                  0.4%   |                  0.4%   [49]         
41     conv2d_41                  |                  0.2%   |                  0.2%   [50, 51]     
42     conv2d_42                  ||                 0.5%   |                  0.4%   [52]         
43     conv2d_43                  ||                 0.7%   |                  0.6%   [53]         
44     conv2d_44                  |                  0.2%   |                  0.2%   [54, 55]     
45     conv2d_45                  ||                 0.7%   |                  0.6%   [56]         
46     eltwise_46                 |                  0.0%   |                  0.0%   [57]         
47     conv2d_47                  ||                 0.7%   |                  0.6%   [58]         
48     conv2d_48                  |                  0.2%   |                  0.2%   [59, 60]     
49     conv2d_49                  ||                 0.7%   |                  0.6%   [61]         
50     eltwise_50                 |                  0.0%   |                  0.0%   [62]         
51     conv2d_51                  ||                 0.7%   |                  0.6%   [64]         
52     pad_52                     |                  0.0%   |                  0.0%   [65]         
53     conv2d_53                  |                  0.1%   |                  0.2%   [66]         
54     conv2d_54                  |                  0.3%   ||                 1.0%   [67]         
55     conv2d_55                  ||                 0.5%   ||                 1.9%   [68]         
56     conv2d_56                  |                  0.1%   |                  0.4%   [69, 70]     
57     conv2d_57                  ||                 0.5%   ||                 1.8%   [71]         
58     eltwise_58                 |                  0.0%   |                  0.0%   [72]         
59     conv2d_59                  ||                 0.5%   ||                 1.9%   [73]         
60     conv2d_60                  |                  0.1%   |                  0.4%   [74, 75]     
61     conv2d_61                  ||                 0.5%   ||                 1.8%   [76]         
62     eltwise_62                 |                  0.0%   |                  0.0%   [77]         
63     conv2d_63                  ||                 0.5%   ||                 1.9%   [78]         
64     conv2d_64                  |                  0.1%   |                  0.4%   [79, 80]     
65     conv2d_65                  |||                1.1%   ||||               3.5%   [81]         
66     conv2d_66                  |||||||||          4.1%   ||||||||||||||    13.8%   [82]         
67     conv2d_67                  ||||||||||         4.7%   ||||||||||||||||  15.2%   [83]         
68     conv2d_68                  |                  0.0%   |                  0.2%   [84, 85]     
69     conv2d_69                  |                  0.5%   ||                 1.6%   [86]         
70     conv2d_70                  |                  0.0%   |                  0.2%   [87, 88]     
71     conv2d_71                  |                  0.5%   ||                 1.6%   [89]         
72     conv2d_72                  |                  0.0%   |                  0.2%   [90, 91]     
73     conv2d_73                  |                  0.5%   ||                 1.6%   [92]         
74     conv2d_74                  |                  0.0%   |                  0.2%   [93, 94]     
75     conv2d_75                  |                  0.5%   ||                 1.6%   [95]         
76     conv2d_76                  |                  0.0%   |                  0.2%   [96, 97]     
77     conv2d_77                  |                  0.1%   |                  0.3%   [98]         
82     conv2d_82                  |                  0.0%   |                  0.2%   [99, 100]    
83     conv2d_83                  |                  0.1%   |                  0.2%   [101]        
94     conv2d_94                  |                  0.0%   |                  0.2%   [102, 103]   
95     conv2d_95                  |                  0.1%   ||                 1.6%   [104]        
96     conv2d_96                  |                  0.0%   |                  0.2%   [105, 106]   
97     conv2d_97                  |                  0.1%   ||                 1.6%   [107]        
98     conv2d_98                  |                  0.0%   |                  0.2%   [108, 109]   
99     conv2d_99                  |                  0.1%   ||                 1.6%   [110]        
100    conv2d_100                 |                  0.0%   |                  0.2%   [111, 112]   
101    conv2d_101                 |                  0.1%   ||                 1.6%   [113]        
102    conv2d_102                 |                  0.0%   |                  0.2%   [114, 115]   
103    conv2d_103                 |                  0.1%   ||                 1.6%   [116]        
104    conv2d_104                 |                  0.0%   |                  0.2%   [117, 118]   
105    conv2d_105                 |                  0.0%   |                  0.3%   [119]        
110    conv2d_110                 |                  0.0%   |                  0.2%   [120, 121]   
111    conv2d_111                 |                  0.0%   |                  0.2%   [122]        
122    conv2d_122                 |                  0.0%   |                  0.2%   [123, 124]   
123    conv2d_123                 |                  0.1%   ||                 1.4%   [125]        
124    conv2d_124                 |                  0.0%   |                  0.1%   [126, 127]   
125    conv2d_125                 |                  0.0%   ||                 1.1%   [128]        
126    conv2d_126                 |                  0.0%   |                  0.1%   [129, 130]   
127    conv2d_127                 |                  0.0%   ||                 1.3%   [131]        
128    conv2d_128                 |                  0.0%   |                  0.2%   [132, 133]   
129    conv2d_129                 |                  0.1%   ||                 1.6%   [134]        
130    conv2d_130                 |                  0.0%   |                  0.2%   [135, 136]   
131    conv2d_131                 |                  0.1%   ||                 1.6%   [137]        
132    conv2d_132                 |                  0.0%   |                  0.2%   [138, 139]   
133    conv2d_133                 |                  0.0%   |                  0.3%   [140]        
138    conv2d_138                 |                  0.0%   |                  0.2%   [141, 142]   
139    conv2d_139                 |                  0.0%   |                  0.2%   [143]        
150    upsample_150               |                  0.1%   |                  0.0%   [144]        
151    conv2d_151                 |                  0.5%   |                  0.4%   [63]         
152    eltwise_152                |                  0.0%   |                  0.0%   [145]        
153    conv2d_153                 |                  0.1%   |                  0.2%   [146, 147]   
154    conv2d_154                 ||||               1.9%   ||                 1.6%   [148]        
155    conv2d_155                 |                  0.1%   |                  0.2%   [149, 150]   
156    conv2d_156                 ||||               1.9%   ||                 1.6%   [151]        
157    conv2d_157                 |                  0.1%   |                  0.2%   [152, 153]   
158    conv2d_158                 ||||               1.9%   ||                 1.6%   [154]        
159    conv2d_159                 |                  0.1%   |                  0.2%   [155, 156]   
160    conv2d_160                 ||||               1.9%   ||                 1.6%   [157]        
161    conv2d_161                 |                  0.1%   |                  0.2%   [158, 159]   
162    conv2d_162                 ||||               1.9%   ||                 1.6%   [160]        
163    conv2d_163                 |                  0.1%   |                  0.2%   [161, 162]   
164    conv2d_164                 |                  0.4%   |                  0.3%   [163]        
169    conv2d_169                 |                  0.1%   |                  0.2%   [164, 165]   
170    conv2d_170                 |                  0.3%   |                  0.2%   [166]        
181    upsample_181               |                  0.2%   |                  0.0%   [167]        
182    conv2d_182                 ||                 0.9%   |                  0.2%   [29]         
183    eltwise_183                |                  0.1%   |                  0.0%   [168]        
184    conv2d_184                 ||                 0.5%   |                  0.2%   [169, 170]   
185    conv2d_185                 ||||||||||||||||   7.6%   ||                 1.6%   [171]        
186    conv2d_186                 ||                 0.5%   |                  0.2%   [172, 173]   
187    conv2d_187                 ||||||||||||||||   7.6%   ||                 1.6%   [174]        
188    conv2d_188                 ||                 0.5%   |                  0.2%   [175, 176]   
189    conv2d_189                 ||||||||||||||||   7.6%   ||                 1.6%   [177]        
190    conv2d_190                 ||                 0.5%   |                  0.2%   [178, 179]   
191    conv2d_191                 ||||||||||||||||   7.6%   ||                 1.6%   [180]        
192    conv2d_192                 ||                 0.5%   |                  0.2%   [181, 182]   
193    conv2d_193                 ||||||||||||||||   7.6%   ||                 1.6%   [183]        
194    conv2d_194                 ||                 0.5%   |                  0.2%   [184, 185]   
195    conv2d_195                 |||                1.5%   |                  0.3%   [186]        
200    concat_200                 |                  0.0%   |                  0.0%   [187]        
201    nl_201                     |                  0.2%   |                  0.0%   [188]        
202    conversion_202             |                  0.0%   |                  0.0%   [189]        
203    conv2d_203                 ||                 0.5%   |                  0.2%   [190, 191]   
204    conv2d_204                 |||                1.2%   |                  0.2%   [192]        
209    concat_209                 |                  0.0%   |                  0.0%   [193]        
210    conversion_210             |                  0.0%   |                  0.0%   [194]        
218    conversion_218             |                  0.0%   ||                 1.4%   [0]          
------ -------------------------- ------------------------- ------------------------- ------------ 
macc=124,403,144 weights=1,078,852 act=805,280 ram_io=0
 
 Requested memory size by section - "stm32h7" target
 ----------------------------- -------- ----------- -------- --------- 
 module                            text      rodata     data       bss 
 ----------------------------- -------- ----------- -------- --------- 
 network.o                        9,370      83,546   69,068     3,732 
 NetworkRuntime910_CM7_GCC.a     32,704           0        0         0 
 network_data.o                      48          16   11,000         0 
 lib (toolchain)*                   902         624        0         0 
 ----------------------------- -------- ----------- -------- --------- 
 RT total**                      43,024      84,186   80,068     3,732 
 ----------------------------- -------- ----------- -------- --------- 
 weights                              0   1,078,880        0         0 
 activations                          0           0        0   805,280 
 io                                   0           0        0         0 
 ----------------------------- -------- ----------- -------- --------- 
 TOTAL                           43,024   1,163,066   80,068   809,012 
 ----------------------------- -------- ----------- -------- --------- 
 *  toolchain objects (libm/libgcc*)
 ** RT AI runtime objects (kernels+infrastructure)
  
  Summary - "stm32h7" target
  --------------------------------------------------
               FLASH (ro)      %*   RAM (rw)      % 
  --------------------------------------------------
  RT total        207,278   16.1%     83,800   9.4% 
  --------------------------------------------------
  TOTAL         1,286,158            889,080        
  --------------------------------------------------
  *  rt/total


Generated files (8)
---------------------------------------------------------------------------------------------------------------------------------------------------- 
H:\stm32ai-modelzoo-2.1.0\object_detection\src\experiments_outputs\2024_12_18_12_15_36\inspector_network\workspace\generated\network_data_params.h   
H:\stm32ai-modelzoo-2.1.0\object_detection\src\experiments_outputs\2024_12_18_12_15_36\inspector_network\workspace\generated\network_data_params.c   
H:\stm32ai-modelzoo-2.1.0\object_detection\src\experiments_outputs\2024_12_18_12_15_36\inspector_network\workspace\generated\network_data.h          
H:\stm32ai-modelzoo-2.1.0\object_detection\src\experiments_outputs\2024_12_18_12_15_36\inspector_network\workspace\generated\network_data.c          
H:\stm32ai-modelzoo-2.1.0\object_detection\src\experiments_outputs\2024_12_18_12_15_36\inspector_network\workspace\generated\network_config.h        
H:\stm32ai-modelzoo-2.1.0\object_detection\src\experiments_outputs\2024_12_18_12_15_36\inspector_network\workspace\generated\network.h               
H:\stm32ai-modelzoo-2.1.0\object_detection\src\experiments_outputs\2024_12_18_12_15_36\inspector_network\workspace\generated\network.c               
H:\stm32ai-modelzoo-2.1.0\object_detection\src\experiments_outputs\2024_12_18_12_15_36\inspector_network\workspace\lib\libai_network.dll             
